models/autoencoder_mnist_25_0.0111.pt (torch, 660085 bytes, 15 tensors)

e_conv.0.weight f4 [4, 1, 5, 5]
0	0x3e9b91fc	0.30384815
1	0x3de69c17	0.112602405
2	0x3dafc2ca	0.08582075
3	0xbe883fda	-0.26611215
4	0xbe75b1fd	-0.23993678
5	0x3eea2347	0.4573004
6	0x3ee91273	0.45521888
7	0xbe87879c	-0.2647065
8	0xbe25dd62	-0.16197732
9	0xbea0ce24	-0.31407273
10	0x3dc929fc	0.09822461
11	0xbd13db55	-0.036097843
12	0xbee5ce68	-0.44884038
13	0xbebbce47	-0.36680815
14	0xbe9c8890	-0.3057294
15	0x3e9071c2	0.2821179
16	0x3df0ab6f	0.11751448
17	0xbeaa7307	-0.33290884
18	0xbeb65e4f	-0.35618827
19	0xbf27ecae	-0.6559552
20	0x3eb735bd	0.35783187
21	0x3e074ddc	0.13213295
22	0x3e90b88a	0.28265792
23	0xbe2807ae	-0.1640918
24	0xbe863fe9	-0.26220635
25	0xbc8232ea	-0.015893418
26	0xbe91778f	-0.28411528
27	0xbdddb226	-0.10824995
28	0x3da69bce	0.08135186
29	0x3e260080	0.16211128
30	0xbe8e5b9c	-0.27804267
31	0xbe889e2b	-0.26683173
32	0xbed1d531	-0.40982965
33	0xbe09ac0d	-0.13444538
34	0xbac2f38f	-0.0014873612
35	0x3e196c74	0.14982778
36	0xbe9328dd	-0.28742114
37	0xbe5aa5e2	-0.21352342
38	0xbe10f9c5	-0.1415778
39	0x3e55b9b4	0.20871621
40	0x3e5e9ef6	0.21740326
41	0xbdb18b22	-0.086691156
42	0xbd5e8930	-0.05433005
43	0x3e1b8ea8	0.15191138
44	0x3ec565f3	0.38554344
45	0xbd98c407	-0.07459264
46	0xbe1502a4	-0.14551789
47	0x3d34764d	0.044058133
48	0x3cee8d1c	0.02912002
49	0x3e7e603d	0.248414
50	0x3ba449e3	0.005013691
51	0x3dfb9fe8	0.12286359
52	0xbd275f10	-0.040862143
53	0x3ca8dac6	0.020612132
54	0xbd15db54	-0.03658612
55	0x3d50cbff	0.050975796
56	0x3ecdf726	0.40227622
57	0x3e1ec427	0.15504514
58	0x3e49b48b	0.19697778
59	0xbd9b5138	-0.075838506
60	0x3eb7c0c6	0.35889262
61	0x3f5ca2bd	0.8618582
62	0x3f28e821	0.659792
63	0x3e787d87	0.24266635
64	0x3e95e940	0.29279518
65	0x3ee1a0f6	0.44068116
66	0x3f6d1102	0.92604077
67	0x3f0bd22a	0.5461756
68	0x3ebf713d	0.3739108
69	0x3e8a5e1d	0.27024928
70	0x3e032298	0.12806165
71	0x3f0cc6ab	0.54990643
72	0x3e2edd1b	0.17076533
73	0x3de218f7	0.11039918
74	0x3dd78a96	0.1052448
75	0xbc997d9f	-0.018736659
76	0x3d9c029e	0.07617687
77	0xbcc7643d	-0.02433979
78	0xbe112116	-0.14172778
79	0x3db85e3b	0.09002348
80	0xbe5a0a87	-0.21293078
81	0x3e28e69a	0.16494218
82	0x3c1137db	0.008863415
83	0x3e50ee97	0.20403515
84	0x3d8b7b7f	0.068106644
85	0x3d5327ce	0.051551633
86	0x3e3c20b4	0.1837185
87	0x3e4dec8e	0.2010977
88	0x3e229409	0.15876783
89	0xbe08195f	-0.13290928
90	0x3e7d4f2e	0.24737236
91	0x3e59fbe1	0.2128749
92	0xbdfa9a73	-0.1223649
93	0xbe5d36eb	-0.21602981
94	0x3ce4388d	0.027858997
95	0x3e024bfb	0.12724297
96	0x3e09313d	0.13397689
97	0xbe0ff9c6	-0.14060125
98	0xbee4f0f9	-0.44715098
99	0xbda556a4	-0.08073166

e_conv.0.bias f4 [4]
0	0x3912010b	0.00013924034
1	0x3e328557	0.17433678
2	0xb78daf22	-1.6890062e-05
3	0x3eb24b9c	0.3482331

e_conv.3.weight f4 [16, 4, 5, 5]
0	0xbd3ec111	-0.04657084
1	0x3d08b05d	0.033371318
2	0x3e4f721d	0.20258375
3	0x3da03b1f	0.078237765
4	0x3ce14652	0.027499352
5	0x3e02e66d	0.12783213
6	0x3e94e17d	0.29078284
7	0x3e589a14	0.21152526
8	0x3e63a980	0.22232628
9	0xbbb07ed3	-0.0053862124
10	0x3e07e0c1	0.1326933
11	0x3e71cf5e	0.2361426
12	0x3e51b848	0.20480454
13	0x3e266ef7	0.16253267
14	0x3e3d7f90	0.18505692
15	0x3d7e6ec0	0.06211734
16	0x3e332ca2	0.17497495
17	0x3e768cf6	0.2407721
18	0x3e47e158	0.19519556
19	0x3dce3a80	0.10069752
20	0x3e1bd3b5	0.15217479
21	0x3e0aa2c1	0.13538648
22	0x3e2793e0	0.16365004
23	0x3e1b26b7	0.15151487
24	0x3d64c1f3	0.055849027
25	0x3ea9a51b	0.33133778
26	0x3e70acc1	0.235034
27	0xbc3e2bc9	-0.011607119
28	0x3dd17b73	0.10228624
29	0x3e357bcb	0.17723005
30	0x3e44f87a	0.19235411
31	0x3da40f9f	0.08010792
32	0xbcc605ad	-0.024172628
33	0xbdced225	-0.10098676
34	0x3b7579e0	0.0037456676
35	0x3ded78c4	0.115953
36	0x3e1a898e	0.15091535
37	0x3c55b69a	0.013044024
38	0xbe00e3f2	-0.12586954
39	0x3deeee0a	0.11666496
40	0x3e098079	0.13427915
41	0x3e177067	0.14788972
42	0x3c56f4f4	0.013119925
43	0x3df8a201	0.12140275
44	0x3e39901e	0.18121383
45	0x3ea390f5	0.3194653
46	0x3dd0064a	0.101574495
47	0x3d86c478	0.06580442
48	0x3d12bc5b	0.03582416
49	0x3ca65210	0.020302802
50	0x3e0707c3	0.13186555
51	0x3e33b192	0.17548206
52	0x3e307f20	0.17235994
53	0x3da29fc7	0.07940631
54	0x3d952885	0.07283119
55	0x3e2dbde0	0.16966963
56	0x3deaadea	0.11458953
57	0x3db1b136	0.086763784
58	0x3db12345	0.08649305
59	0xbd8d7bb8	-0.06908363
60	0x3de7c884	0.11317542
61	0x3e69df7e	0.22839162
62	0x3da0b426	0.078468606
63	0xbccea0a1	-0.025223078
64	0x3c0d668f	0.008630409
65	0x3e3d7327	0.18500958
66	0x3e233cf0	0.15941215
67	0x3e1e5cbf	0.15465067
68	0x3bb35613	0.0054729073
69	0xbd97440f	-0.07386028
70	0x3cea2a1c	0.028584532
71	0x3e5163bd	0.20448203
72	0x3e337ac4	0.175273
73	0x3b848ae2	0.0040448764
74	0xbd9acba8	-0.075583756
75	0xbd37d5bc	-0.044881567
76	0x3decdafb	0.11565205
77	0x3e774efd	0.24151225
78	0xbc891c97	-0.016737266
79	0xbd6d70c9	-0.05796889
80	0x3d6674db	0.056263786
81	0x3e583cdb	0.21116965
82	0x3d07a92f	0.03312033
83	0x3e0c6f7b	0.13714401
84	0xbbe715ae	-0.007052145
85	0x3d3aa1fc	0.045564637
86	0x3d9b2a67	0.07576447
87	0x3e2e296a	0.17007986
88	0xbd54961d	-0.05190097
89	0x3d9623d0	0.073310494
90	0x3dc4c736	0.09608309
91	0x3e47e04e	0.19519159
92	0x3d48cb18	0.04902181
93	0x3cdafc0f	0.026731519
94	0xbdc36669	-0.095410176
95	0x3dcb5b5d	0.099295355
96	0x3e69426d	0.22779246
97	0x3de58f95	0.11209027
98	0x3d166636	0.03671857
99	0xbca6d014	-0.020362891
100	0x3e90c84b	0.2827781
101	0x3dff4b63	0.12465551
102	0xbeae5f62	-0.34057146
103	0xbe274f34	-0.16338807
104	0x3eb737e4	0.3578483
105	0x3e522809	0.20523085
106	0xbeb8d58d	-0.36100426
107	0xbe34ab2b	-0.1764342
108	0xbe100b1e	-0.14066741
109	0x3e3c3c11	0.18382289
110	0xbe1e36c9	-0.15450586
111	0xbf19c318	-0.60063314
112	0xbedca0d3	-0.4309145
113	0xbe663094	-0.22479469
114	0xbd82e864	-0.06391981
115	0xbed94a17	-0.4243934
116	0xbf35b388	-0.7097707
117	0xbe91f041	-0.28503612
118	0xbe8af8d6	-0.27142972
119	0x3d5209f6	0.05127903
120	0xbead6966	-0.33869475
121	0xbf3fdb63	-0.7494413
122	0xbee6673b	-0.45000634
123	0xbde37ffc	-0.111083955
124	0x3e28a327	0.16468488
125	0xbc56a37e	-0.013100503
126	0x3dd8e42a	0.10590394
127	0x3d5a3015	0.05326851
128	0x3f0558d1	0.5208865
129	0x3e3437eb	0.17599456
130	0x3de03f51	0.10949577
131	0xbd8a3eb1	-0.06750239
132	0x3dcc707b	0.099823914
133	0x3f493951	0.7860308
134	0x3ebf03b8	0.37307525
135	0xbdc77014	-0.09738174
136	0xbbf6d0b4	-0.0075322036
137	0x3e2cf895	0.16891702
138	0x3f099d60	0.5375576
139	0x3d9137d9	0.0709073
140	0xbb8b28d9	-0.004246813
141	0x3dda1bd2	0.106498376
142	0x3ea8533d	0.32876006
143	0x3f14beb1	0.5810347
144	0x3dae717f	0.085177414
145	0xbdd3ba2c	-0.10338244
146	0x3e9e239a	0.30886537
147	0x3eb0ca61	0.34529403
148	0x3eaee371	0.341579
149	0xbbebf02d	-0.007200262
150	0x3e6216ad	0.22078963
151	0xbebdab8f	-0.3704495
152	0xbe9aa460	-0.30203533
153	0xbdfb0b03	-0.1225796
154	0x3e55d660	0.20882559
155	0xbe83c1a6	-0.2573368
156	0xbf35de92	-0.7104274
157	0xbf26b671	-0.65122133
158	0xbe89facb	-0.26949152
159	0x3e475a74	0.19468099
160	0xbecd0e7c	-0.40050113
161	0xbf41b9d2	-0.75674164
162	0xbeeec0de	-0.4663152
163	0xbe3beec5	-0.18352802
164	0x3d84b36b	0.06479534
165	0xbf254132	-0.64552605
166	0xbf21c32b	-0.6318843
167	0xbe88b8d9	-0.26703528
168	0xbdb43356	-0.08798854
169	0x3db07357	0.08615749
170	0xbf13998c	-0.5765617
171	0xbeb1f3cc	-0.34756315
172	0xbe090b5c	-0.1338324
173	0x3dcfd283	0.10147574
174	0x3d1cb746	0.03826072
175	0x3e82c52a	0.2554105
176	0x3e1bd67e	0.15218541
177	0x3e3b2797	0.18276821
178	0x3ebc6db1	0.36802438
179	0x3e33d16e	0.1756036
180	0x3e456bd3	0.19279413
181	0x3e1bd8d5	0.15219434
182	0x3e3eb718	0.18624532
183	0x3ee39a91	0.44453862
184	0x3e5969dc	0.21231788
185	0x3e2c15f4	0.1680525
186	0x3e584b2b	0.21122424
187	0x3e07b83c	0.13253874
188	0x3ea7d552	0.32779938
189	0x3d80840e	0.062751874
190	0x3e29cc8e	0.16581938
191	0x3e73ba4c	0.23801535
192	0x3e83f157	0.25770065
193	0x3ec90217	0.39259407
194	0x3e32e682	0.17470744
195	0x3e589e9d	0.21154256
196	0x3e495bb2	0.19663885
197	0xbdd49fdb	-0.103820525
198	0x3eca0195	0.39454332
199	0x3e8e6964	0.27814782
200	0xbb6ccc9f	-0.0036132706
201	0x3e9127a2	0.2835055
202	0xbd9ee81e	-0.077591166
203	0xbd9a0d60	-0.07522082
204	0x3bd5b4ca	0.006521796
205	0x3e22b12e	0.15887901
206	0x3eb5690c	0.35431707
207	0x3e42a2be	0.19007394
208	0x3c3e33c9	0.011609026
209	0xbdcafd84	-0.099116355
210	0xbdb8fa42	-0.09032108
211	0x3e26da49	0.16294207
212	0x3e96d3ff	0.29458615
213	0x3d965427	0.073402695
214	0xbe79e761	-0.2440467
215	0xbe56a9f1	-0.20963265
216	0xbe3dc664	-0.18532711
217	0x3dc34c31	0.09536017
218	0x3dbbf976	0.0917844
219	0xbdaad09f	-0.083405726
220	0xbdb828a4	-0.089921266
221	0xbb1d421f	-0.002399571
222	0xbd22c29d	-0.03973638
223	0x3ddbf71d	0.107404925
224	0x3d76f642	0.060293444
225	0x3cbad2d2	0.022805605
226	0x3bd6ae03	0.0065515055
227	0x3d788fa6	0.06068387
228	0xbe03ef98	-0.12884367
229	0xbd01217b	-0.03152607
230	0x3d31033d	0.04321598
231	0x3c8473d6	0.016168516
232	0x3da9476b	0.08265575
233	0x3e004312	0.12525585
234	0x3d33a64b	0.04385976
235	0x3e406186	0.18787202
236	0x3e3ed0fb	0.18634407
237	0xbcb729ff	-0.022358892
238	0x3e56851d	0.20949216
239	0x3de0f257	0.10983723
240	0x3dccc9e1	0.09999443
241	0x3dfa911c	0.12234709
242	0xbd2953ef	-0.04133981
243	0x3dc3c268	0.095585644
244	0x3e0111df	0.12604474
245	0x3ca05fac	0.01957687
246	0x3d49b26d	0.049242426
247	0xbeb09b5a	-0.34493524
248	0xbed9a970	-0.42512083
249	0xbe9b49ad	-0.30329648
250	0xbc52545f	-0.012837498
251	0xbdc8a32d	-0.09796748
252	0xbbf72769	-0.00754254
253	0xbd7d82da	-0.061892368
254	0xbcac6a36	-0.02104674
255	0x3dab639f	0.083686106

e_conv.3.bias f4 [16]
0	0xbe2585c9	-0.16164316
1	0x3e8d77ae	0.2763037
2	0x3da4ea88	0.08052546
3	0x3dc77c0b	0.09740456
4	0x3d7f20fb	0.062287312
5	0x3c494d92	0.012286561
6	0x3e86ea66	0.26350707
7	0x3caf7fb8	0.021423206
8	0x3e29bc37	0.16575705
9	0xbd877a61	-0.06615139
10	0x3de9ff38	0.11425632
11	0x3e4f04ed	0.20216723
12	0x3e302175	0.17200263
13	0x3dae5ea9	0.08514149
14	0x3d3ebe4f	0.04656821
15	0x3bb45f9f	0.005504563

e_linear.0.weight f4 [100, 784]
0	0x3b417510	0.0029519238
1	0x3c8f44ec	0.01748892
2	0xbb2b1280	-0.0026103556
3	0xbcc48445	-0.023988852
4	0xbcd8d852	-0.026470337
5	0x3cccb711	0.024989637
6	0xba9f6040	-0.0012159422
7	0xbc2ba3b2	-0.01047604
8	0xbd0b5d8f	-0.03402477
9	0xbcb5b9e5	-0.022183368
10	0xbc20003c	-0.009765681
11	0xbbcddcf8	-0.006282445
12	0x3c4a52b4	0.0123488195
13	0x3ca1a224	0.019730635
14	0xbcbfe543	-0.02342475
15	0xbcfff9cc	-0.031247042
16	0x3d0a51cd	0.033769418
17	0x3c6a9600	0.014317989
18	0x3cf13fde	0.0294494
19	0xbaa71d40	-0.0012749806
20	0xbba8ad5c	-0.005147619
21	0x3ca7b1be	0.020470496
22	0x3d068251	0.032839123
23	0xbcfa54b8	-0.030557975
24	0xbc35eaea	-0.011103371
25	0xbca7289c	-0.020405106
26	0x3d07be8f	0.033140715
27	0x3b9a95a8	0.0047175474
28	0x3d09f477	0.033680405
29	0xbd038998	-0.03211364
30	0x3d0fe237	0.035127845
31	0xbd03ec00	-0.03220749
32	0xbcc40235	-0.023926834
33	0x3c0c82e0	0.008576125
34	0xb90f0500	-0.00013639405
35	0xbca48d45	-0.020086894
36	0xb9d93100	-0.00041425973
37	0x3ceb6a86	0.028737318
38	0xbc8c66f3	-0.017138934
39	0xbcf5d365	-0.030008027
40	0x3cf7a5f2	0.030230496
41	0xbcd0f94c	-0.025509499
42	0xbca43825	-0.020046303
43	0x3c0b62a4	0.0085074045
44	0xb9b62c00	-0.00034746528
45	0xbcb9516e	-0.022621837
46	0x398c4f00	0.0002676174
47	0x3cfb7566	0.030695628
48	0xbc98a930	-0.018635362
49	0xbc65454a	-0.013993571
50	0xbd0ceaab	-0.034403484
51	0x3d0d75b9	0.034536097
52	0x3ca11626	0.019663882
53	0x3c796ae0	0.015223235
54	0xbd008910	-0.031380713
55	0xbc94e2da	-0.018174578
56	0x3c156624	0.0091185905
57	0xbc8cc2da	-0.017182756
58	0xbc0f9dfc	-0.008765694
59	0xbb44c7f0	-0.0030026399
60	0x3cc5bbdc	0.02413743
61	0x3c83de0c	0.016097091
62	0xbc09886a	-0.00839434
63	0xbc9ea19e	-0.019364174
64	0x3d01abc1	0.031657938
65	0x3c8ab1de	0.016930517
66	0x3b4f5ad0	0.0031639822
67	0xbcb6f190	-0.022331983
68	0xbd06649c	-0.032810792
69	0xbc320c60	-0.010867208
70	0x3d0724d3	0.032994103
71	0xbc9c27b7	-0.019061906
72	0xbc5c30ea	-0.013439396
73	0x3c83c60a	0.016085643
74	0x3ca38f8a	0.019965906
75	0x3c582fd5	0.013194998
76	0x3c8de816	0.017322581
77	0x3cd2d5dc	0.025736742
78	0xbce41a46	-0.02784456
79	0xbd07a0d7	-0.033112373
80	0x3d001fa5	0.03128018
81	0xbcfeb2b1	-0.031091066
82	0xbb2f9e30	-0.0026797168
83	0x3cee7a2e	0.029110994
84	0xbc134fcd	-0.008991194
85	0xbbbc10a6	-0.0057392893
86	0x3c47c01f	0.012191801
87	0x3cc4dc1a	0.024030734
88	0xbba28fd4	-0.0049609933
89	0xbacef948	-0.0015790844
90	0xbc9fa420	-0.01948744
91	0xbd2375ad	-0.039907146
92	0xbcb807a9	-0.02246459
93	0xbc186fdb	-0.009304012
94	0xbca8268f	-0.020526199
95	0xbd029b95	-0.031886656
96	0xbc7c8d44	-0.01541454
97	0x3cc2d9dc	0.023785524
98	0x3b28a110	0.0025730766
99	0xbd310114	-0.04321392
100	0xbc8e7df1	-0.017394038
101	0x3c452eba	0.012035066
102	0xbc3d5b6b	-0.01155744
103	0x3bb98a74	0.005662257
104	0xbccd13f6	-0.025033932
105	0x3cb248a6	0.021763157
106	0xbc3eee95	-0.011653562
107	0x3c817d2d	0.015806759
108	0xbceb0e9e	-0.028693493
109	0x3c2d38d0	0.010572627
110	0xbcfbfd14	-0.030760325
111	0xbd03685e	-0.032081954
112	0xbc8b336e	-0.016992297
113	0xbbab2fea	-0.0052242177
114	0xbd390aca	-0.045176305
115	0x3cc02828	0.023456648
116	0xbc1be5de	-0.009515254
117	0x3c13f64c	0.00903089
118	0x3b3bfe38	0.0028685462
119	0xbc9e0a16	-0.019291919
120	0xbce36d20	-0.027761996
121	0xbbbfebda	-0.005856973
122	0x3bb76c74	0.0055976454
123	0xbd29ba01	-0.041437153
124	0x3cc7a537	0.024370773
125	0xbd34fe15	-0.044187624
126	0xb9750840	-0.00023368094
127	0xbcbaf48e	-0.02282169
128	0xbc3f0150	-0.011658028
129	0xbc273d3f	-0.010207473
130	0xbd0f1cdd	-0.034939636
131	0x3c2ed549	0.010670968
132	0xbc6e6a92	-0.0145517755
133	0x3c790b80	0.015200496
134	0x3c68b1e4	0.014202569
135	0x3b970eb4	0.004609907
136	0xbd0ed0f4	-0.034867242
137	0xbca70780	-0.020389318
138	0xbd0cdd76	-0.03439089
139	0x3ca6f920	0.020382464
140	0xbc96e794	-0.018420972
141	0xbd06c053	-0.03289826
142	0x3cac7098	0.021049783
143	0xbbccbf4c	-0.0062483903
144	0xbc06966a	-0.008214572
145	0xba2661e0	-0.0006346982
146	0x3ca6f050	0.020378262
147	0xbb79b2e0	-0.0038101003
148	0x3b18da0c	0.0023323325
149	0xbcbb0e4e	-0.02283397
150	0xbc04e233	-0.008110571
151	0x3c269a19	0.010168576
152	0x3b6c9e30	0.003610503
153	0xbc434520	-0.011918336
154	0xbd10951a	-0.035298444
155	0x3c3a6a0b	0.011377822
156	0xbc41cc52	-0.011828499
157	0xbbefa380	-0.007313192
158	0x3c97f13e	0.01854765
159	0xbc84a85a	-0.016193558
160	0x3caa4cf0	0.02078864
161	0x3b3c6f80	0.0028752983
162	0xbd0f2b5d	-0.034953464
163	0xba873122	-0.0010314325
164	0x3bfa3b26	0.0076364456
165	0xbc45f638	-0.012082629
166	0xbccba758	-0.02486007
167	0xbabdfee8	-0.0014495524
168	0xbcad6ea0	-0.021170914
169	0xbbc5e2ac	-0.0060389843
170	0xbcafc7ee	-0.021457639
171	0xbc879843	-0.016552096
172	0x3cc2fdc2	0.023802642
173	0xbb995606	-0.0046794442
174	0x3c49ee3d	0.012324867
175	0x3cf6f692	0.03014687
176	0xbc3651ab	-0.01112787
177	0xbcde90a8	-0.027168587
178	0xbb845902	-0.004038931
179	0x38a4b200	7.8532845e-05
180	0xbc2196a8	-0.009862579
181	0x3b453da4	0.0030096555
182	0xbcea5615	-0.0286055
183	0xbbfd6cac	-0.007733902
184	0xbd153b35	-0.036433417
185	0xbc3bc65f	-0.01146087
186	0xbbdd49dc	-0.0067531895
187	0xbccffaac	-0.025388084
188	0x3cd07982	0.025448564
189	0x3c7a15d4	0.015263993
190	0xbbcbe688	-0.00622255
191	0xbcb5e2f0	-0.022202939
192	0x3b89c800	0.00420475
193	0xbcc8cfd0	-0.024513155
194	0xbc360d9f	-0.011111646
195	0x3c21a768	0.009866573
196	0xbcab0675	-0.020877102
197	0x3c8d6f90	0.017265111
198	0x3c8579c4	0.016293414
199	0x3afc5df0	0.001925407
200	0xbc96e9ae	-0.018421974
201	0xbd2105be	-0.039312117
202	0xbc1ba424	-0.009499583
203	0xbc803a83	-0.0156529
204	0x3ca2db5c	0.01987999
205	0x3c958df2	0.018256161
206	0xbd316eee	-0.04331868
207	0xbd0a0f40	-0.03370595
208	0x3bd27ffc	0.0064239483
209	0x3cbb6c0d	0.022878671
210	0x3c83f90c	0.016109966
211	0x3c818a0f	0.015812902
212	0xbcf01e02	-0.029311184
213	0xbd3a324c	-0.045458123
214	0xbd000ff4	-0.031265214
215	0x3cb7cb60	0.022435844
216	0xbcf5e2ca	-0.030015368
217	0xbc6aec08	-0.014338501
218	0x3cac2388	0.021013036
219	0xbcd789cc	-0.026310824
220	0x3bc802b2	0.006103837
221	0x3c393204	0.011303429
222	0x3c46b25f	0.012127488
223	0xbd3acfcd	-0.04560833
224	0xbc8e7aa0	-0.017392457
225	0xbcfeeb34	-0.031118013
226	0x3c2b62be	0.010460554
227	0xbb97df36	-0.004634763
228	0xbc3c8c07	-0.0115079945
229	0xb9d92000	-0.00041413307
230	0xbc84d41c	-0.016214423
231	0xbc4d07d8	-0.012514077
232	0xbbec981a	-0.0072202804
233	0x3cc79162	0.024361316
234	0xbd294e07	-0.04133418
235	0xbad8dd88	-0.0016545514
236	0xbccbe774	-0.024890639
237	0xbd12670d	-0.035742808
238	0xba8c81b0	-0.0010719802
239	0x3b907152	0.00440804
240	0x3bd8b122	0.0066129128
241	0x3b52e94c	0.0032182513
242	0xbba980ee	-0.0051728403
243	0x3bc99c62	0.0061526755
244	0x3c9aa3cc	0.018876933
245	0xbb8958a8	-0.004191477
246	0x3c155698	0.009114884
247	0xbcebdb13	-0.028790986
248	0xba8afc20	-0.0010603704
249	0xbc65bcd2	-0.014022069
250	0xbca06787	-0.019580616
251	0xbd104674	-0.03522344
252	0x3cfd55c6	0.030924689
253	0x3cb7ec10	0.02245143
254	0xbc6436d2	-0.013929086
255	0xbcedd931	-0.029034229

e_linear.0.bias f4 [100]
0	0xbc963f9c	-0.018340878
1	0xbdbed856	-0.093186066
2	0x3ca525ff	0.02015972
3	0xbc97c5f4	-0.018527009
4	0x3e147a78	0.14499843
5	0xbad2e798	-0.0016090749
6	0x3c245217	0.010029337
7	0xbcf75db0	-0.03019604
8	0x3c069c4a	0.008215973
9	0xbce90a1c	-0.028447203
10	0xbc91a8fc	-0.017780773
11	0x3ccf49c5	0.02530373
12	0x3ad57748	0.0016286159
13	0xbcbc38c0	-0.02297628
14	0x3dae7bd3	0.08519711
15	0xbb4019e0	-0.0029312298
16	0xbce0f1b8	-0.02745901
17	0x3d0436d5	0.032278854
18	0x3d983626	0.07432203
19	0x3c2a6607	0.010400302
20	0xbcd1757a	-0.025568713
21	0x3e0b7217	0.1361774
22	0xbd1c736c	-0.038196012
23	0x3d91fce2	0.07128312
24	0x3c748fbd	0.014926848
25	0x3c9b1fa0	0.018935978
26	0xbcae09ed	-0.021244967
27	0x3e218078	0.15771663
28	0x3bfd8d1a	0.007737768
29	0xbb300b2c	-0.0026862128
30	0xbd19cd3f	-0.037549254
31	0xbd27358a	-0.040822543
32	0x3dc24453	0.09485688
33	0x3cce03b4	0.02514825
34	0x3ccf24d3	0.025286114
35	0x3cb67810	0.022274047
36	0x3c01e35c	0.007927742
37	0x3dc75945	0.09733824
38	0x3dd4b226	0.103855416
39	0xbc88d24c	-0.01670184
40	0xbbb9f8ea	-0.005675425
41	0x3d9a335e	0.07529329
42	0xba6b6730	-0.0008979915
43	0xbcdd9f0e	-0.027053382
44	0xbd4628ea	-0.048378862
45	0x3dcd7d7b	0.10033699
46	0x3e01821d	0.1264729
47	0x3e370061	0.17871238
48	0x3de74843	0.1129308
49	0xbb8e4d1a	-0.0043426873
50	0xbcb1ec2b	-0.021719059
51	0x3caaeb8a	0.020864267
52	0xbd06ca90	-0.032908022
53	0x3cbb7dcc	0.022887133
54	0x3e193ac3	0.14963822
55	0xbd2344b0	-0.039860427
56	0xbcc1fd4f	-0.023680357
57	0xb9ce3ce0	-0.00039336737
58	0xbc7ba3cd	-0.015358877
59	0x3d46975a	0.048484184
60	0xbd9a41e0	-0.07532096
61	0xbcb9e211	-0.022690805
62	0x3bc972d2	0.006147721
63	0x3cbd75aa	0.023127396
64	0xbccf0ced	-0.025274718
65	0x3e0d9b1b	0.138287
66	0x3dc5ff3c	0.09667823
67	0xbbabfd58	-0.005248707
68	0xbd010129	-0.031495247
69	0x3c8fbdcd	0.017546559
70	0x3c452cbc	0.012034591
71	0xbca1c8a3	-0.019748991
72	0xbd096d75	-0.033551652
73	0xbd1c4aa6	-0.038157128
74	0x3c726c04	0.014796261
75	0x3da96e99	0.08273048
76	0xbb9a157a	-0.0047022672
77	0x3dcaf75a	0.0991046
78	0xbccdc002	-0.02511597
79	0x3e1e5512	0.15462139
80	0x3d2e778e	0.042594485
81	0xbcdd89b8	-0.027043208
82	0x3b9066ae	0.0044067716
83	0xba64b120	-0.00087239034
84	0x3e04379d	0.1291184
85	0x3c86d9f6	0.016461354
86	0xbcd45c80	-0.025923014
87	0xbbb8687a	-0.005627689
88	0xbcdaf099	-0.026726054
89	0x3da4c3d6	0.08045165
90	0xbc7c2620	-0.015389949
91	0xbe0625ba	-0.13100329
92	0xbc9fed4c	-0.019522332
93	0xbc9df9cc	-0.019284151
94	0x3cbd0b58	0.023076698
95	0xbc89d7f3	-0.016826605
96	0x3ccfa7a0	0.025348485
97	0x3d443e5a	0.047911026
98	0x3d367cdf	0.04455268
99	0xbc58d022	-0.0132332165

e_linear.2.weight f4 [20, 100]
0	0x3d9c1961	0.07622028
1	0xbdf9b262	-0.12192227
2	0xbd460c80	-0.048351765
3	0xbba5d8a0	-0.005061224
4	0xbd4058ff	-0.046959873
5	0x3d8f5a6b	0.06999668
6	0xbcec3ce8	-0.028837636
7	0xbd277e60	-0.040892005
8	0xbda7079d	-0.08155749
9	0x3d5cb5e2	0.053884394
10	0x3cc64398	0.024202153
11	0xbd1a0b5a	-0.037608482
12	0x3bf19530	0.007372521
13	0x3d250e06	0.040296577
14	0x3c0178fc	0.00790238
15	0x3c162fe8	0.009166695
16	0xbc8a65e8	-0.016894296
17	0x3cd8f5e7	0.026484443
18	0xbc06e9d4	-0.00823446
19	0x3c6f2d18	0.0145981535
20	0xbd11cbfc	-0.035594925
21	0xbdcaa723	-0.0989516
22	0xbd0e9826	-0.03481307
23	0xbdff822b	-0.124759994
24	0xba71cb00	-0.000922367
25	0xbcd527cc	-0.026019953
26	0x3d9fa3f1	0.07794941
27	0x3d46988f	0.048485335
28	0x3d8b3709	0.067976065
29	0x3d7e64c6	0.062107824
30	0xbdaae322	-0.083441034
31	0x3d1a624e	0.037691407
32	0xbdaa0db4	-0.08303395
33	0xbd017dac	-0.03161399
34	0xbce8aad6	-0.028401773
35	0xbd844fd0	-0.064605355
36	0x3dab454b	0.08362826
37	0xbda8f96f	-0.08250701
38	0xbc2f2e26	-0.010692155
39	0x3d8523a5	0.06500939
40	0xbc8b3ab8	-0.016995773
41	0x3ceac330	0.028657526
42	0x3da156cf	0.078778856
43	0x3db4d79f	0.08830189
44	0xbd741d39	-0.05959818
45	0x3d803d20	0.06261659
46	0xbba5e5a4	-0.0050627757
47	0x3cc34628	0.023837164
48	0x3c5d1d46	0.013495749
49	0x3da2d149	0.07950074
50	0xbd06582a	-0.032798924
51	0xbd74b43d	-0.0597422
52	0x3d2efe92	0.042723246
53	0xbd7cfc2a	-0.06176392
54	0xbd81f145	-0.06344847
55	0x3cb89c3e	0.02253544
56	0x3d695ab2	0.05697126
57	0x3d8660a9	0.06561405
58	0x3db4fbbd	0.08837078
59	0xbde9f8bb	-0.11424395
60	0xbd586e76	-0.05283972
61	0x3c31cc46	0.010851925
62	0xbdbc4c50	-0.09194243
63	0xbc7b14f0	-0.015324816
64	0xbdbf1cd8	-0.093316734
65	0x3d09fbd0	0.033687413
66	0x3d3e54b7	0.04646751
67	0x3d8b82a1	0.06812025
68	0xbb5b5a00	-0.0033470392
69	0xbd13f2c6	-0.0361202
70	0xbd6e834a	-0.058230676
71	0xbcfe05b4	-0.031008579
72	0xbd6d9e40	-0.058012247
73	0xbca31538	-0.019907579
74	0x3c2b5a00	0.010458469
75	0x3cadaed2	0.021201525
76	0xbc9defc8	-0.019279376
77	0x3ca4a67a	0.020098913
78	0x3c818bac	0.015813671
79	0xbe0116af	-0.1260631
80	0xbc8fd6b1	-0.017558428
81	0xbd70263d	-0.058630217
82	0x3da8a67f	0.082348816
83	0xbdaba53d	-0.08381126
84	0xbdc0ac9d	-0.09407923
85	0xbce4a5f4	-0.027911164
86	0x3dbbe241	0.09174014
87	0x3d3783ca	0.04480342
88	0x3c477c00	0.01217556
89	0xbda9f730	-0.082991004
90	0x3ccd97a4	0.025096722
91	0x3d8263bb	0.06366678
92	0xbd9822f3	-0.07428541
93	0x3dab0634	0.083507925
94	0xbd88bfec	-0.06677231
95	0x3b694e98	0.0035599824
96	0x3c636830	0.013879821
97	0x3da3ff23	0.08007648
98	0xbdd7d405	-0.105384864
99	0xbdcb3ac0	-0.09923315
100	0x3c973176	0.018456202
101	0x3e6b7dc7	0.22997199
102	0x3c085fa1	0.008323581
103	0xb9841360	-0.00025191437
104	0x3e4d48cb	0.200473
105	0xbda5c382	-0.08093931
106	0x3dc95295	0.098302044
107	0x3d890b0e	0.06691562
108	0xbc98f670	-0.018672198
109	0x3d810603	0.06299975
110	0xbd7549fd	-0.059885014
111	0xbcb29fd5	-0.02180473
112	0x3d668f24	0.056288853
113	0x3db972d7	0.09055107
114	0xbd227b62	-0.03966845
115	0xbd83d312	-0.06436743
116	0x3d52cf1c	0.051467046
117	0xbeae54ab	-0.34048972
118	0xbd25ec8e	-0.0405088
119	0xbceff544	-0.029291756
120	0x3da5f67c	0.08103654
121	0xbd5ec55a	-0.054387428
122	0xbd0b3426	-0.03398528
123	0x3df531ba	0.11972375
124	0xbd255c26	-0.040371083
125	0xbdaa108a	-0.08303936
126	0xbdb6ccb0	-0.0892576
127	0xbcd1c2b4	-0.025605537
128	0xbdb6ca9a	-0.08925362
129	0xbd6dc10e	-0.05804544
130	0xbd2f070f	-0.04273134
131	0xbcbae8d4	-0.0228161
132	0x3ba1082f	0.0049143056
133	0xbd22e61d	-0.039770234
134	0xbda2d866	-0.07951431
135	0xbc791d6c	-0.015204769
136	0x3d8fafd0	0.070159554
137	0x3d17a755	0.037024815
138	0x3e56f03e	0.20990083
139	0xbdb2aeae	-0.08724724
140	0x3d6c84ca	0.057743825
141	0x3dd22a1b	0.10261937
142	0xbd2cfa0d	-0.042230655
143	0xbd85594a	-0.06511171
144	0x3cd7b5f0	0.026331872
145	0xbd25fe32	-0.040525623
146	0xbd8c9b9e	-0.06865619
147	0x3d3851b8	0.044999808
148	0xbd068e13	-0.032850336
149	0xbbca6a6c	-0.0061772373
150	0xbb2f5ec8	-0.0026759375
151	0x3c92710a	0.017876167
152	0xbd832d6c	-0.06405148
153	0x3d9e54bf	0.07731008
154	0x3e364002	0.17797855
155	0xbd61b619	-0.055105302
156	0xbb838680	-0.0040138364
157	0xbdc15eb7	-0.094418935
158	0xbd0a83cf	-0.03381711
159	0x3e3bf466	0.1835495
160	0xbe0e62f0	-0.13904929
161	0x3d050551	0.032475773
162	0xbcc3c990	-0.023899823
163	0xbd241d4f	-0.040067013
164	0xbd3be8ee	-0.045876436
165	0x3d75e5a1	0.060033444
166	0x3e3eba2b	0.18625705
167	0xbc94d91c	-0.018169932
168	0xb93032c0	-0.00016803574
169	0xbd4697a4	-0.04848446
170	0xbd7b8866	-0.061409377
171	0xbc89fea8	-0.016845062
172	0x3d21d910	0.039513648
173	0x3d5aa450	0.053379357
174	0xbd28f92f	-0.041253265
175	0xbddf89b9	-0.109149404
176	0x3d998fa2	0.07498099
177	0x3dce73d7	0.100806884
178	0x3cee012e	0.029053297
179	0x3d019953	0.031640362
180	0x3e530e93	0.20611028
181	0x3d476869	0.048683558
182	0x3d91e46e	0.07123648
183	0xbd8cbc23	-0.06871822
184	0x3dbd94d9	0.09256906
185	0xbd3535b1	-0.044240657
186	0xbd2aee2f	-0.041731056
187	0xbcfdd5c8	-0.030985728
188	0xbcd22f80	-0.025657415
189	0x3e6cd07b	0.23126404
190	0xbc296878	-0.010339849
191	0x3e5a1cda	0.21300068
192	0xbcfd576e	-0.030925479
193	0x3cd626fa	0.026141632
194	0xbcc6b914	-0.024258174
195	0x3cb406f2	0.021975968
196	0x3d484b64	0.048900023
197	0xbd0a6928	-0.03379169
198	0x3dd14b08	0.10219389
199	0x3cb1b970	0.021694869
200	0x3c246a90	0.010035172
201	0xbd291f88	-0.041289836
202	0x3db2d4a4	0.08731964
203	0x3dae1ccb	0.085015856
204	0x3d73fc71	0.05956692
205	0xbda51f17	-0.080625705
206	0x3d878853	0.06617799
207	0x3d443b88	0.047908336
208	0x3caafd94	0.020872869
209	0xbcabd658	-0.02097623
210	0xbd9f5a02	-0.077808395
211	0x3d9e068e	0.07716094
212	0xbdcff449	-0.101540156
213	0x3d2adfd2	0.041717358
214	0xbdec8d3a	-0.11550374
215	0x3c6e3b89	0.0145405615
216	0x3daea2ac	0.08527121
217	0xbe041217	-0.12897526
218	0xbc27875a	-0.010225141
219	0xbd20cf42	-0.039260156
220	0x3d1265ce	0.03574162
221	0x3d478671	0.048712198
222	0xbd52b0b9	-0.051438067
223	0x3e45bcc3	0.19310288
224	0xbcbe0a78	-0.023198351
225	0xbd7f3232	-0.06230373
226	0x3da95e24	0.08269909
227	0xbd84de01	-0.064876564
228	0x3db07349	0.08615739
229	0xbce80d68	-0.028326705
230	0x3d49847e	0.04919862
231	0x3dd3be97	0.103390865
232	0x3cf0160a	0.029307384
233	0xbdbeda32	-0.09318961
234	0xbd6aba34	-0.057306483
235	0xbd97484a	-0.07386835
236	0x3d8e1388	0.06937319
237	0xbdb5c95c	-0.08876297
238	0xbdd52095	-0.10406605
239	0x3d6d133c	0.05787967
240	0xbbb0b77c	-0.005392967
241	0xbe5fc9b2	-0.21854284
242	0xbc0bc9f9	-0.008532041
243	0xbdc09cea	-0.09404929
244	0xbe79daf4	-0.2439993
245	0xbe64c913	-0.22342329
246	0x3e8b6e20	0.27232456
247	0xbd9c9c46	-0.07646994
248	0x3db5cd44	0.08877042
249	0xbd4ac685	-0.04950573
250	0xbd123bc0	-0.035701513
251	0xbd0ee193	-0.034883093
252	0xbd8a04bc	-0.06739184
253	0x3d1f03c4	0.03882195
254	0xbb48de73	-0.0030650168
255	0x3db8d581	0.09025098

e_linear.2.bias f4 [20]
0	0xbe009d02	-0.12559894
1	0x3d897b5c	0.06712982
2	0x3d849223	0.06473186
3	0xbd8fc2ea	-0.07019599
4	0xbd7e8800	-0.06214142
5	0xbd3dc41c	-0.046329603
6	0x3d3bfc98	0.04589519
7	0xbc6b72d8	-0.014370643
8	0x3d3a509f	0.045487043
9	0x3e37a358	0.17933404
10	0xbea1ee42	-0.3162709
11	0xbdbd2251	-0.09235061
12	0x3dbd31d5	0.0923802
13	0x3e097e5f	0.13427113
14	0x3d8b151e	0.06791137
15	0x3d99a6ef	0.07502543
16	0x3c4c64ca	0.012475202
17	0xbc017349	-0.007901021
18	0xbcce2ef4	-0.025168873
19	0xbb958959	-0.0045634923

d_linear.0.weight f4 [100, 20]
0	0x3e21013c	0.15723127
1	0x3e85513e	0.26038545
2	0xbe374622	-0.17897847
3	0xbdb70e26	-0.089382455
4	0xbe2147fc	-0.15750116
5	0x3d98999b	0.07451173
6	0xbd609d13	-0.054837298
7	0xbc6313a0	-0.013859659
8	0xbc654d69	-0.013995507
9	0xbe08c9fc	-0.13358301
10	0x3d9d85ac	0.076915115
11	0xbc573e70	-0.013137445
12	0xbe1d11a1	-0.15338756
13	0x3e2cc22b	0.16870944
14	0xbcaa01f7	-0.02075289
15	0xbdd4ae40	-0.10384798
16	0xbdc96e21	-0.098354585
17	0x3e966e53	0.29381046
18	0x3e049e02	0.129509
19	0xbd79ff13	-0.061034273
20	0xbd228cbd	-0.039685
21	0x3e4c8f27	0.19976483
22	0xbdd5f28f	-0.10446655
23	0xbe1fffc7	-0.15624915
24	0xbe03bf87	-0.1286603
25	0x3d840fea	0.06448348
26	0x3ede1731	0.4337707
27	0x3e2d1738	0.16903389
28	0xbc097fa5	-0.008392249
29	0x3ddb0ff3	0.106964014
30	0x3e880aa5	0.2657062
31	0xbe1ffd7c	-0.1562404
32	0xbcf3165b	-0.029673746
33	0x3d4e9788	0.05043748
34	0xbf0a82eb	-0.54106015
35	0x3bde1159	0.0067769703
36	0x3e91858f	0.2842221
37	0xbdc94b69	-0.098288365
38	0xbe8071f8	-0.2508695
39	0xbd4e5395	-0.05037268
40	0xbe561376	-0.20905861
41	0x3e48ca7c	0.19608492
42	0xbe020f10	-0.12701058
43	0x3e4857c8	0.19564736
44	0xbe054b42	-0.1301699
45	0xbe360b18	-0.1777767
46	0x3e8bfb18	0.27340007
47	0xbda34d26	-0.07973699
48	0x3eedffa3	0.46484098
49	0xbdf55963	-0.1197994
50	0xbe8069bf	-0.25080678
51	0xbe611621	-0.21981098
52	0xbebf3d86	-0.37351626
53	0x3e0312ec	0.12800187
54	0xbdc1bc11	-0.09459699
55	0xbd4edf02	-0.050505646
56	0x3c1fcbcf	0.009753182
57	0x3e3b770c	0.18307132
58	0x3e814766	0.25249785
59	0xbe23ba18	-0.15988958
60	0x3cd1a0f0	0.025589436
61	0x3d4bba9d	0.049738515
62	0x3e801119	0.25013044
63	0xbe1836fa	-0.14864722
64	0x3baa01e0	0.005188212
65	0xbd9f0685	-0.077649154
66	0xbee62f46	-0.44957942
67	0xbe3f323c	-0.18671507
68	0x3e71f673	0.23629169
69	0x3e139e18	0.14415777
70	0xbe780539	-0.24220742
71	0xbe4161d3	-0.18884973
72	0xbced4d23	-0.028967446
73	0x3ce4fe78	0.027953371
74	0xbe6787f7	-0.2261046
75	0xbe0b0779	-0.1357707
76	0x3e5df7eb	0.21676604
77	0x3e12c583	0.14333157
78	0xbd8e1b4b	-0.069387995
79	0xbdcb55b3	-0.09928455
80	0x3d84be34	0.06481591
81	0xbcd9483d	-0.026523704
82	0xbd83334c	-0.064062685
83	0x3e81c3c0	0.25344658
84	0x3d8d2144	0.068911105
85	0xbd4f95ed	-0.05068009
86	0x3e403ba0	0.18772745
87	0xbde6398d	-0.11241446
88	0x3dcbadfb	0.099452935
89	0x3df1248a	0.117745474
90	0x3e2217b4	0.15829355
91	0xbd63159e	-0.055440538
92	0x3cabe42c	0.020982824
93	0x3de1ef98	0.11032027
94	0x3df8261f	0.12116646
95	0xbe508fde	-0.20367381
96	0xbe752bbb	-0.23942463
97	0x3df5533d	0.11978767
98	0xbe3e9276	-0.18610558
99	0x3e27c2da	0.16382924
100	0x3e05292a	0.13003984
101	0xbe17233d	-0.14759536
102	0xbd9fb9d7	-0.07799118
103	0xbe1f07ae	-0.15530273
104	0xbe4d4070	-0.20044112
105	0xbdc8e259	-0.098087974
106	0x3cab2008	0.020889297
107	0xbcb6ed20	-0.022329867
108	0xbd532228	-0.051546246
109	0xbe10a210	-0.14124322
110	0xbc92fd86	-0.017943155
111	0xbcb88ef0	-0.022529095
112	0xbd5f01fb	-0.054445248
113	0x3b48fc7c	0.003066807
114	0xbda6d01d	-0.08145163
115	0x3e0b122b	0.1358115
116	0x3d87b5a8	0.06626445
117	0x3dd1d8d9	0.102464385
118	0xbe44f925	-0.19235666
119	0xbd0accec	-0.033886835
120	0xbdcc4b4f	-0.099753015
121	0xbe1f8cec	-0.15581101
122	0xbe25312e	-0.16132042
123	0xbe7dcf43	-0.24786095
124	0x3ccea3f0	0.025224656
125	0x3e1af31e	0.15131804
126	0xbe885eb7	-0.26634762
127	0x3e06175e	0.13094851
128	0x3e556f6e	0.20843288
129	0x3d84d616	0.06486146
130	0xbd1db564	-0.038503066
131	0x3e583432	0.21113661
132	0xbb93a7c8	-0.004506085
133	0xbe6ca470	-0.23109603
134	0x3e2ccd7a	0.16875258
135	0xbde4acf1	-0.111657985
136	0xbdf0fc99	-0.11766929
137	0xbe8b98fa	-0.2726515
138	0x3ed9b8ad	0.4252371
139	0x3e8a598c	0.27021444
140	0xbd525be8	-0.05135718
141	0x3e164f54	0.14678699
142	0x3e3df94e	0.18552133
143	0xbc73cc31	-0.014880226
144	0xbe613f6b	-0.21996848
145	0xbebfcb91	-0.37459996
146	0xbe2a6e3d	-0.16643615
147	0x3c437a10	0.011930957
148	0x3e2258f2	0.15854242
149	0x3e7d1b79	0.24717511
150	0xbccc444a	-0.024934907
151	0x3e3d0bfd	0.18461604
152	0x3dc9c868	0.098526776
153	0x3e17e092	0.1483176
154	0x3e5ee847	0.21768294
155	0x3d0b0438	0.03393957
156	0xbe2e0b20	-0.16996431
157	0xbe144b2d	-0.14481802
158	0x3e8f22f1	0.27956346
159	0x3d87552e	0.066080436
160	0x3dc589de	0.09645437
161	0x3e653505	0.22383507
162	0x3e12e70a	0.14345947
163	0xbd8465d0	-0.06464732
164	0x3db7af4c	0.08968982
165	0xbe4f7442	-0.20259193
166	0x3d8dac93	0.069176815
167	0x3e4f0cda	0.20219746
168	0xbc3a6f05	-0.011379008
169	0x3e18d6ec	0.14925736
170	0xbd38ece3	-0.045147788
171	0x3cac3970	0.021023482
172	0x3e9b2607	0.3030245
173	0x3ee0371f	0.43792054
174	0x3ec1f868	0.3788483
175	0xbeaa7af8	-0.33296943
176	0xbe026e6f	-0.1273744
177	0xbd876121	-0.06610323
178	0xbd1feaaf	-0.03904217
179	0xbe945ff8	-0.28979468
180	0xbda36614	-0.07978454
181	0xbdbf8d1c	-0.09353086
182	0xbdfeddc4	-0.12444642
183	0xbe25dcb3	-0.16197471
184	0xbdbc4e08	-0.09194571
185	0x3df79f4d	0.12090931
186	0xbe8c2a87	-0.27376196
187	0xbe63edab	-0.22258632
188	0xbd289c10	-0.041164458
189	0x3e092ba8	0.1339556
190	0x3e2b6ef2	0.16741541
191	0x3d73b295	0.05949648
192	0xbea12f5e	-0.3148145
193	0x3e65587e	0.22397038
194	0x3e179fc5	0.14807041
195	0xbd820557	-0.06348675
196	0x3e931e06	0.28733844
197	0xbefd59bb	-0.4948252
198	0x3ddee27e	0.10883044
199	0xbe061fba	-0.1309804
200	0xbe349110	-0.17633462
201	0x3de9a598	0.114085376
202	0xbd4ac083	-0.0495
203	0x3e7075e5	0.23482473
204	0xbd95706a	-0.07296832
205	0x3e97fd27	0.29685327
206	0xbe4d323d	-0.20038696
207	0xbdc1d492	-0.09464373
208	0xbe6c7107	-0.23089992
209	0x3e40a046	0.1881114
210	0x3d953fd6	0.07287566
211	0x3d4d8ab8	0.05018112
212	0xbd067bea	-0.032833017
213	0x3da9a429	0.08283264
214	0xbe3dfca5	-0.18553407
215	0xbc3017fb	-0.010747905
216	0x3bfe7d9c	0.0077664386
217	0x3d09e690	0.033667147
218	0x3e015972	0.12631777
219	0xbeba003a	-0.36328298
220	0xbdc5b7e9	-0.09654219
221	0xbeaa6e8a	-0.3328746
222	0x3e85c74b	0.2612861
223	0x3d383458	0.044971794
224	0xbd860a1c	-0.06544897
225	0x3d4c1227	0.049822
226	0x3e9e8d1b	0.3096703
227	0x3ca9f1a8	0.020745113
228	0xbdb1a10d	-0.08673296
229	0xbe76e091	-0.24109103
230	0xbda63088	-0.08114725
231	0x3c6fb82e	0.014631314
232	0x3f1718f3	0.59022444
233	0x3da68293	0.08130374
234	0x3ec82043	0.39087114
235	0xbce209d5	-0.027592579
236	0xbd94e2b1	-0.072698005
237	0x3e8c2a59	0.2737606
238	0xbdfa9292	-0.12234987
239	0xbce04880	-0.02737832
240	0x3e1505ed	0.14553042
241	0xbde8033d	-0.11328743
242	0xbe53a638	-0.20668876
243	0x3e2fb371	0.17158295
244	0xbdb40e18	-0.08791751
245	0xbcd3016a	-0.02575751
246	0x3de7ec89	0.113244124
247	0x3e1261f2	0.14295176
248	0x3e13d11e	0.1443524
249	0xbd38b8c3	-0.045098078
250	0xbd828449	-0.06372888
251	0x3dc414a0	0.095742464
252	0xbe0d626a	-0.13807073
253	0xbe0ac894	-0.13553077
254	0x3dd36101	0.103212364
255	0x3e1e6a31	0.15470196

d_linear.0.bias f4 [100]
0	0x3c8dc640	0.017306447
1	0x3e6b9e27	0.23009549
2	0x3e16933d	0.14704604
3	0x3d881f5a	0.06646605
4	0xbea8db1f	-0.32979676
5	0x3e61c11f	0.22046326
6	0x3eb51a56	0.35371655
7	0xbdf0adbb	-0.117518865
8	0x3ef95fc2	0.4870587
9	0x3d298bfc	0.041393265
10	0xbf0bb4ef	-0.5457296
11	0xbe8c7ba8	-0.27438092
12	0xbd8b72c3	-0.068089984
13	0x3d7f1c7f	0.062283035
14	0xbe08e7de	-0.133697
15	0xbeac2bc5	-0.33627144
16	0xbe3ea5a5	-0.18617876
17	0x3d96beb0	0.073605895
18	0xbf2f7a7e	-0.68546283
19	0x3db0569e	0.08610271
20	0xbdaac9a4	-0.08339241
21	0x3d80bc9a	0.06285973
22	0xbe47a9a7	-0.19498311
23	0x3dc1e018	0.094665706
24	0xbe4e7594	-0.2016204
25	0x3dd7818a	0.105227545
26	0xbeb528fc	-0.3538283
27	0xbeb7c308	-0.35890985
28	0x3c8f930a	0.017526168
29	0xbe7c045d	-0.2461104
30	0x3e052529	0.13002457
31	0x3e5a61ac	0.21326321
32	0xbe80822e	-0.2509932
33	0x3e185953	0.14877824
34	0x3ecba420	0.39773655
35	0x3ea6f457	0.32608292
36	0x3e5830a8	0.21112311
37	0xbe819463	-0.25308523
38	0xbea2fd6a	-0.31833965
39	0x3d7389da	0.059457637
40	0x3e359fce	0.17736742
41	0x3dbcb6dc	0.09214565
42	0x3de54eaf	0.11196648
43	0xbeb31a36	-0.34980935
44	0xbe3db893	-0.1852744
45	0xbea9023a	-0.3300951
46	0x3d710b1b	0.05884848
47	0xbd10ff2e	-0.03539961
48	0xbe67fca6	-0.22654971
49	0x3d3b36b4	0.045706466
50	0xbc0258af	-0.007955714
51	0x3e41ce41	0.18926336
52	0xbeab231f	-0.33425233
53	0x3ea71a43	0.32637224
54	0x3e6af734	0.22945863
55	0x3ec938f7	0.39301273
56	0x3ca82f94	0.0205305
57	0x3d4ff3cc	0.050769612
58	0x3e18bcac	0.14915723
59	0xbe87c361	-0.2651625
60	0x3ee69eb2	0.4504295
61	0xbc44b3a9	-0.012005725
62	0xbdf07f1c	-0.11742994
63	0xbd1ac7bc	-0.037788138
64	0xbe2b82e5	-0.16749151
65	0xbc67c5af	-0.014146253
66	0x3e8cd8d9	0.27509192
67	0xbe273f11	-0.16332652
68	0xbe74ca50	-0.23905301
69	0x3e783e31	0.24242474
70	0xbe7b29f2	-0.2452772
71	0x3e0d3488	0.1378957
72	0xbe0eeb83	-0.13957028
73	0x3de871bf	0.1134982
74	0xbd076516	-0.033055387
75	0x3ebf70b2	0.37390667
76	0x3ea9b29d	0.33144084
77	0xbdb582f9	-0.08862872
78	0x3e0c682f	0.13711618
79	0x3eef9287	0.4679148
80	0xbd415994	-0.04720457
81	0x3f0a0a40	0.5392189
82	0xbea62563	-0.324504
83	0x3e97a081	0.29614642
84	0x3da38677	0.079846315
85	0x3e981f8c	0.29711568
86	0x3e9bc325	0.3042232
87	0xbdea3bfc	-0.11437222
88	0x3e69a16b	0.22815482
89	0x3c3a5f58	0.011375271
90	0xbe6ff943	-0.2343493
91	0xbec52fb7	-0.38512966
92	0x3c408563	0.011750552
93	0x3d2c54d6	0.042073093
94	0x3f09a928	0.53773737
95	0xbcf2de1f	-0.029646931
96	0xbda9f992	-0.08299555
97	0x3d6f63b6	0.0584447
98	0x3c06dc14	0.008231182
99	0x3e984d48	0.2974646

d_linear.2.weight f4 [784, 100]
0	0xbdc615fc	-0.09672162
1	0xbc494b0c	-0.012285959
2	0x3cc1bed0	0.023650557
3	0xbdbf7a51	-0.09349502
4	0xbd582bc8	-0.052776128
5	0xbdcb75df	-0.099345915
6	0xbdb74312	-0.089483395
7	0xbc86ddc7	-0.016463174
8	0x3a57213b	0.0008206551
9	0xbda2fdc7	-0.079585604
10	0x3d680ad4	0.05665095
11	0x3ca2baa8	0.019864395
12	0xbcc7311b	-0.024315407
13	0x3da19b92	0.07891001
14	0x3d1e6312	0.0386687
15	0xbdab6a2c	-0.0836986
16	0x3ca7b6ab	0.020472845
17	0x3d5faf3b	0.054610472
18	0x3d42b15a	0.047532417
19	0x3d85fa7a	0.06541915
20	0x3d8060c4	0.062684566
21	0x3d282aff	0.04105663
22	0x3cba7d90	0.022764951
23	0xbb8d6186	-0.004314604
24	0xbcab68fd	-0.020924086
25	0xbd24b7ea	-0.040214457
26	0xbd0b9c9b	-0.034084897
27	0xbc2d2d3c	-0.010569867
28	0xbcef7374	-0.029229857
29	0x3d98ca78	0.07460493
30	0xbd541b50	-0.05178386
31	0x3d3c09f0	0.045907915
32	0xbcdbb345	-0.02681888
33	0xbc6c5d20	-0.0144265
34	0xbd89ace3	-0.06722429
35	0xbbcaf2da	-0.006193501
36	0x3cfd0e3b	0.030890575
37	0x3cdc6ac9	0.026906388
38	0xbd13a739	-0.036048148
39	0x3ce921df	0.028458534
40	0xbd9caf5d	-0.076506354
41	0x3be57859	0.007002872
42	0xbbeec510	-0.0072866753
43	0x3d4058e9	0.04695979
44	0xbcc9e610	-0.024645835
45	0xbb74ddbb	-0.0037363607
46	0x3d295eac	0.04135005
47	0x3d9a6f8e	0.075408086
48	0x3cfad2c3	0.030618077
49	0xbd078ce6	-0.033093356
50	0xbd506b7f	-0.050883766
51	0xba4543df	-0.0007525067
52	0x3db1a954	0.08674875
53	0x3d43e40f	0.047824915
54	0xbd0b3bc6	-0.03399255
55	0x3cbbfed4	0.02294866
56	0xbc9ef8ec	-0.019405805
57	0xbde2eebd	-0.11080692
58	0xbd33a723	-0.043860566
59	0xbc5c0258	-0.013428293
60	0xbdd71617	-0.1050226
61	0x3c6dd38e	0.014515771
62	0x3c44736a	0.0119904075
63	0x3d1079d0	0.03527242
64	0xbdb19ed7	-0.086728744
65	0xbced2585	-0.028948555
66	0x3d470870	0.04859203
67	0x3b0042ae	0.0019570994
68	0x3db63692	0.08897127
69	0xbd368b91	-0.044566695
70	0xbd95c38c	-0.07312688
71	0xbd19d35f	-0.037555095
72	0xbd97a864	-0.07405165
73	0xbcdc2c3f	-0.026876567
74	0xbd876958	-0.066118896
75	0xbd5822cc	-0.05276756
76	0xbd20a25a	-0.03921733
77	0xbcdd6fe9	-0.027030902
78	0x3d946b83	0.07247069
79	0x3b9fcea6	0.0048769293
80	0x3bdcd6e0	0.0067394823
81	0xbd0c80e1	-0.034302596
82	0xbd96e324	-0.073675424
83	0x3daaba38	0.083363
84	0x3d3d02ab	0.046145122
85	0x3b1867e7	0.002325529
86	0xbdc305f5	-0.095226206
87	0x3c3b73af	0.011441155
88	0x3c0eb3e1	0.008709879
89	0xbd819679	-0.063275285
90	0xbd9afc0e	-0.07567607
91	0x3bcd70da	0.0062695565
92	0xbd5f95a2	-0.05458606
93	0x3d6d08ee	0.057869844
94	0xbd8b1c7d	-0.06792543
95	0xbdd0ed55	-0.102015175
96	0xbd8cf3d9	-0.06882448
97	0x3c2678a7	0.010160602
98	0xbcf7fa96	-0.030270856
99	0x3d72edfd	0.059308995
100	0x3d6073dc	0.054797992
101	0x3d85f1ce	0.06540261
102	0xbd8e1315	-0.06937233
103	0xbdbf53f3	-0.09342184
104	0x3bb480f8	0.0055085383
105	0x3cbee540	0.023302674
106	0xbb772914	-0.0037713693
107	0x3c5e3a83	0.013563755
108	0xbbfaf29d	-0.0076583163
109	0x3c759f9f	0.01499167
110	0xbdd25bd3	-0.1027142
111	0xbde5050e	-0.11182605
112	0xbe05c3fc	-0.13063043
113	0x3d9505fc	0.07276532
114	0xbdab4a91	-0.08363832
115	0x3c5ce056	0.01348122
116	0x3d9c4100	0.07629585
117	0x3d5ab1da	0.05339227
118	0x3bdd8644	0.0067603905
119	0x3cf4c82b	0.029880604
120	0x3bd03a45	0.0063546025
121	0xbda748c2	-0.08168174
122	0xbc1d1870	-0.009588346
123	0xbcfa4679	-0.030551182
124	0xbddbc906	-0.107317016
125	0xbd138c27	-0.03602233
126	0x3cefb95f	0.029263197
127	0x3cdeca32	0.027196024
128	0x3d7b7f22	0.06140054
129	0x3cee95b4	0.029124118
130	0xbd724ea1	-0.059157018
131	0xbbc0624b	-0.0058710924
132	0xbd1e99c2	-0.038720854
133	0xbdb5c01f	-0.08874535
134	0x3a689fd0	0.00088739116
135	0x3d689a8a	0.056788005
136	0xbd4b00f7	-0.049561467
137	0xbdda7aba	-0.106679395
138	0x3d48c97e	0.049020283
139	0xbdcc8e09	-0.099880286
140	0xbd970f3a	-0.07375951
141	0xbc8c2c3a	-0.017110933
142	0xbc8931c8	-0.01674737
143	0x3d09c64b	0.033636373
144	0x3d86752c	0.065653175
145	0xbdb6684d	-0.089066125
146	0x3d4920f2	0.049103685
147	0xbd793f7c	-0.06085156
148	0x3d88a24e	0.06671582
149	0xbda2cbab	-0.07949003
150	0xbdc8723a	-0.09787412
151	0xbd5487c3	-0.051887285
152	0x3c4f8980	0.01266706
153	0x3d6130da	0.05497823
154	0x3d9405e5	0.07227687
155	0x3d4bfec6	0.049803518
156	0xbd9391a1	-0.07205511
157	0xbdbbd9d4	-0.09172407
158	0xbd9241d2	-0.071414605
159	0xbd8c486f	-0.06849753
160	0x3bc18698	0.0059059374
161	0x3ad8929e	0.0016523188
162	0x3d726ce7	0.05918589
163	0x3d532c6c	0.051556036
164	0x3c99d987	0.018780483
165	0x3d900e04	0.07033923
166	0x39ef6210	0.00045658695
167	0xbcabcfe6	-0.020973157
168	0xbc6f29ce	-0.014597369
169	0xbd3038d7	-0.043022957
170	0xbda4cf91	-0.08047403
171	0xbcf947ee	-0.030429807
172	0xbc7daac7	-0.015482611
173	0x3d0904a7	0.033451702
174	0xbdbdd10a	-0.09268387
175	0xbd9b9038	-0.07595867
176	0xbd8a747c	-0.06760499
177	0xbcf3ff96	-0.029784959
178	0x3d5ce9e8	0.053934008
179	0x3d4d7202	0.050157554
180	0x3d8aa389	0.06769473
181	0xbdabd56c	-0.08390316
182	0xbbab94a1	-0.005236224
183	0x3d202d42	0.03910566
184	0xbd56c07e	-0.05242967
185	0x3c0b713b	0.008510883
186	0x3d2d5a87	0.04232266
187	0x3c6a929d	0.014317182
188	0x3d2a51f5	0.041582067
189	0x3cdffe16	0.027342837
190	0xbd254a72	-0.0403542
191	0xbdb871e7	-0.090061
192	0xbc142acb	-0.009043406
193	0x3d807c31	0.06273688
194	0xbdcfcec2	-0.10146858
195	0x3d48090c	0.048836753
196	0x3d68ef84	0.056869045
197	0x3ccbe2a4	0.024888344
198	0x3d3d7c7a	0.04626129
199	0xb9b85f80	-0.00035166368
200	0x3cf421b2	0.029801223
201	0x3d447314	0.04796131
202	0xbccc92f0	-0.024972409
203	0x3bb02b7a	0.0053762766
204	0xbcbc4d70	-0.022986144
205	0xbd3f4b89	-0.046702895
206	0xbd811300	-0.06302452
207	0xbdd2b4ea	-0.10288413
208	0x3c64d542	0.01396686
209	0xbcd4e3a9	-0.025987463
210	0xbd9bab94	-0.07601085
211	0x3c6985af	0.014253064
212	0xbd9c7a6c	-0.076405376
213	0x3cf46090	0.0298312
214	0x3d8c6ede	0.06857084
215	0xbd930150	-0.07177985
216	0xbd277bf3	-0.04088969
217	0xbdb4a1ce	-0.08819924
218	0x3db3af28	0.08773643
219	0x3da3b919	0.07994289
220	0xbc209131	-0.009800241
221	0xbdc82895	-0.097733654
222	0xbd578c1a	-0.052623846
223	0x3da0c6bb	0.07850405
224	0xbcf26d78	-0.029593214
225	0xbd1d18f3	-0.03835387
226	0xbbda2d94	-0.0066582654
227	0x3cd96574	0.026537634
228	0xbda2e3a2	-0.07953574
229	0xbda26daa	-0.07931073
230	0x3d9cecc8	0.0766235
231	0x3d5c1f3c	0.053740725
232	0x3b414fa0	0.0029496923
233	0xbdc4c650	-0.096081376
234	0xbdbeccd3	-0.09316411
235	0xbd91538c	-0.070960134
236	0x3ca442c3	0.020051366
237	0x3dad402f	0.08459508
238	0x3ce1c2ba	0.027558673
239	0x3d7fe34d	0.06247263
240	0x3d1b7a02	0.037958153
241	0xbde2c21d	-0.110721804
242	0xbdc000a3	-0.093751214
243	0xbd2d080c	-0.042244002
244	0x3cf1e643	0.029528743
245	0x3d9aca7a	0.075581506
246	0x3d9228e8	0.071367085
247	0xbd80f02d	-0.0629581
248	0x3d254baf	0.04035538
249	0xbcd43297	-0.02590303
250	0x3bba1b40	0.005679518
251	0x3d6f24a6	0.05838456
252	0xbbcb4d46	-0.00620428
253	0x3d212d2a	0.039349712
254	0xbbe4b67c	-0.0069797616
255	0xbd57fd9d	-0.0527321

d_linear.2.bias f4 [784]
0	0xbd8516e4	-0.06498507
1	0xbdafb32f	-0.085790984
2	0xbd1b2d1d	-0.03788482
3	0xbc70725c	-0.014675703
4	0x3d9438d9	0.07237405
5	0xbc1710ea	-0.009220341
6	0xbce6560a	-0.028117198
7	0xbdd75ce4	-0.10515764
8	0x3d4cd28a	0.050005473
9	0xbbaa90a9	-0.005205233
10	0xbda55a66	-0.08073883
11	0xbd637aae	-0.05553692
12	0xbdc72a9c	-0.09724924
13	0xbbce6d1e	-0.006299629
14	0x3b8771e9	0.004133452
15	0x3d1b7590	0.037953913
16	0xbea2f53d	-0.31827727
17	0xbd8f8fbc	-0.07009837
18	0xbe5bfc62	-0.21482995
19	0xbcd9a479	-0.026567684
20	0x3d41e5e5	0.047338385
21	0xb9f68eda	-0.0004702721
22	0xbe94c669	-0.29057625
23	0xbddc2986	-0.107501075
24	0x3d86b0db	0.06576701
25	0xbd95ad5e	-0.07308458
26	0xbdbb237f	-0.0913763
27	0xbce31dc4	-0.027724154
28	0x3cca8133	0.02471981
29	0x3d6cf051	0.05784637
30	0xbda650f2	-0.08120908
31	0xbe2b05ae	-0.16701385
32	0xbe72e6de	-0.23720881
33	0x3d9552e8	0.07291204
34	0x3c151a63	0.009100529
35	0x3d833424	0.064064294
36	0x3cbbf69d	0.022944743
37	0xbdc29e83	-0.0950289
38	0xbdff579a	-0.124678805
39	0xbd9ab163	-0.07553365
40	0x3dbb29fd	0.09138868
41	0xbca6e353	-0.020372069
42	0x3d6361cd	0.055513192
43	0xbd29a28f	-0.041414794
44	0xbdb3a013	-0.08770766
45	0x3d84af3c	0.06478736
46	0xbda9a147	-0.08282714
47	0x3d8902ba	0.06689973
48	0xbd641f64	-0.055694
49	0xbdb22fe2	-0.08700539
50	0xbb1ab1c4	-0.0023604492
51	0x3d5e7df8	0.054319352
52	0x3e69f301	0.22846605
53	0x3d4da71a	0.05020819
54	0x3c85cd39	0.01633321
55	0x3c34a0d2	0.011024671
56	0xbddb9710	-0.10722172
57	0xbdcd79e3	-0.10033014
58	0x3e910cb5	0.28330007
59	0x3e5e7082	0.21722606
60	0xbd9851a1	-0.074374445
61	0xbd6ae240	-0.057344675
62	0x3d4912d5	0.049090225
63	0x3dee9b93	0.11650767
64	0xbac296e9	-0.0014846
65	0x3e04a8ba	0.12954989
66	0xbd88d32f	-0.06680905
67	0x3c8b5e20	0.017012656
68	0xbe5270d2	-0.2055085
69	0x3d562e28	0.05229011
70	0x3d2ac849	0.041694913
71	0x3e3b1393	0.18269186
72	0x3d524a46	0.051340364
73	0xbd15b7c2	-0.0365522
74	0x3c7c0dc9	0.015384146
75	0xbd4c4cf3	-0.049878072
76	0x3d44b82e	0.04802721
77	0xbd7a918c	-0.06117396
78	0xbdd3c34c	-0.10339984
79	0xbc4e89b3	-0.012606072
80	0x3aaf3f60	0.0013370328
81	0x3dcaa1bc	0.0989413
82	0x3cf8b68e	0.030360486
83	0x3dc45c64	0.095879346
84	0xba2dcea3	-0.00066302175
85	0xbc0dcdd5	-0.008655031
86	0x3e1a0648	0.15041459
87	0x3ea75687	0.32683203
88	0xbd909589	-0.070597716
89	0xbb4b28ae	-0.0030999589
90	0x3e132023	0.14367728
91	0xbabf0709	-0.001457424
92	0x3dd3e5c8	0.10346562
93	0x3dc794a5	0.097451486
94	0x3d2e20f6	0.042511903
95	0x3d0016bd	0.031271685
96	0x3db8a22c	0.09015307
97	0x3e1af28e	0.1513159
98	0x3e19f33f	0.15034197
99	0xbcf23601	-0.029566767
100	0x3cd15ca0	0.025556862
101	0x3ea52be4	0.32260048
102	0x3e07138d	0.13191052
103	0xbd79c71b	-0.060980897
104	0xbc440601	-0.011964322
105	0x3d687d03	0.056759845
106	0xbe489790	-0.19589067
107	0x3cf32ab5	0.02968345
108	0x3e218f69	0.15777363
109	0x3d19e169	0.037568484
110	0xbcc401e7	-0.023926688
111	0xbd01c062	-0.03167761
112	0xbd8a57bc	-0.06755015
113	0xbd5122e7	-0.051058676
114	0x3c9523c1	0.018205525
115	0xbc747d7f	-0.014922499
116	0x3d6d77f8	0.05797574
117	0xbc047b2a	-0.008086005
118	0xbdf66efb	-0.120328866
119	0x3da10ee1	0.07864166
120	0x3eb4292a	0.35187656
121	0x3caa9397	0.02082233
122	0x3d415750	0.04720241
123	0x3e11865a	0.14211407
124	0x3d038154	0.03210576
125	0xbd234aca	-0.039866246
126	0x3d401c6d	0.04690211
127	0x3e31556b	0.1731774
128	0x3cacc0e9	0.02108808
129	0xbdf67543	-0.12034085
130	0xbd0ec539	-0.034856055
131	0xbe854fa9	-0.26037338
132	0xbd947fc3	-0.07250931
133	0xbd321aab	-0.043482464
134	0x3dca36c4	0.09873727
135	0x3d11a732	0.03555984
136	0x3d57ccb1	0.052685443
137	0x3e771e46	0.24132642
138	0xbd178398	-0.036990732
139	0x3d7609a3	0.060067784
140	0xbdac42d3	-0.08411183
141	0x3d7074ab	0.058705013
142	0x3de2b5b3	0.110698126
143	0x3df918aa	0.121629074
144	0xbb8c3820	-0.0042791516
145	0xbd8668c2	-0.0656295
146	0x3cbf8c88	0.02338244
147	0x3cfbd886	0.030742895
148	0xbd0c285b	-0.034218173
149	0x3e1e0338	0.15430915
150	0x3e156bdd	0.14591928
151	0x3eaef91f	0.3417444
152	0x3d33d396	0.043902956
153	0x3d4606a7	0.048346188
154	0xbd8fc4b1	-0.07019938
155	0xbddd91a7	-0.108187966
156	0x3e3c1b55	0.18369801
157	0x3e0e7185	0.13910492
158	0x3c00abb6	0.007853439
159	0xbde7dfeb	-0.11322006
160	0x3db9b783	0.09068205
161	0xbd0d475b	-0.034491878
162	0x3e8654e3	0.26236638
163	0xbcf82808	-0.030292526
164	0x3b434966	0.0029798388
165	0xbce848e6	-0.028355073
166	0x3df9d4f0	0.12198818
167	0xbd9c2f43	-0.07626202
168	0xbbaf0e40	-0.005342275
169	0x3e8e6a37	0.2781541
170	0x3d8f82ba	0.07007356
171	0x3c5b481c	0.013383891
172	0xbd2933a4	-0.041309014
173	0xbc911ec1	-0.01771486
174	0x3e00420f	0.125252
175	0x3daa99a0	0.08330083
176	0xbcc78d15	-0.024359265
177	0x3dcac23a	0.09900327
178	0x3b90da94	0.004420588
179	0x3e88d89f	0.2672777
180	0xbe1776f2	-0.14791468
181	0xbc910205	-0.017701158
182	0xbd34abe9	-0.04410926
183	0x3d843bc3	0.06456711
184	0x3e2c1727	0.16805707
185	0xbd5a4777	-0.05329081
186	0x3c560293	0.013062137
187	0xbd19866a	-0.037481703
188	0x3d3dfb9b	0.046382528
189	0x3e0f97ee	0.140228
190	0x3defa5b4	0.11701527
191	0xbd0a6b39	-0.03379366
192	0x3dfa8722	0.12232806
193	0x3cb3716b	0.021904668
194	0xbc07c4cc	-0.008286666
195	0x3e0c4b6f	0.1370065
196	0xbd69bc03	-0.057064068
197	0x3d4a24d2	0.04935152
198	0xbdbf49be	-0.09340237
199	0xbdcc3de0	-0.09972739
200	0xbe093fea	-0.13403288
201	0x3c0591b4	0.008152414
202	0xbd3fb7d2	-0.046806164
203	0xbada04e9	-0.0016633543
204	0xbd284a32	-0.041086383
205	0x3d370d38	0.04469034
206	0x3ada9f7e	0.0016679612
207	0xbcc08321	-0.023500027
208	0x3d6fbbab	0.058528583
209	0xbd5ebe80	-0.054380894
210	0xba074222	-0.0005159696
211	0xbd910933	-0.07081833
212	0xbbdda208	-0.0067637004
213	0xbd8ffb11	-0.07030309
214	0xbd3c896a	-0.046029486
215	0x3c9bfd8a	0.019041795
216	0x3ca31b62	0.019910518
217	0xbd1e2514	-0.03860958
218	0x3dd9ceff	0.106351845
219	0xbbdd4fb0	-0.0067538843
220	0x3e771add	0.24131341
221	0xbd0abd68	-0.033872038
222	0xbd31d5f2	-0.043416925
223	0x3d6671e0	0.056260943
224	0xbd5cbca4	-0.05389084
225	0xbd2b6ae3	-0.041849982
226	0xbbe006ca	-0.006836747
227	0x3c824e05	0.015906343
228	0xbdacbb4d	-0.08434162
229	0x3d459199	0.048234556
230	0x3d96367b	0.0733461
231	0xbdda0873	-0.10646143
232	0x3d87bf23	0.06628253
233	0x3e2a2de2	0.16619065
234	0xbdc84d48	-0.09780365
235	0xbe2413c4	-0.16023165
236	0xbd6e0655	-0.058111507
237	0x3dc5ac77	0.09652036
238	0xbdb9911b	-0.0906088
239	0x3d73d8fb	0.0595331
240	0x3cc2648c	0.023729585
241	0x3c1a7df9	0.009429448
242	0x3d4d6336	0.050143443
243	0x3d1d3e74	0.038389638
244	0x3d205f87	0.039153602
245	0x3db4b006	0.08822636
246	0x3dcb969c	0.09940836
247	0x3e0b3f82	0.13598445
248	0x3ecd5b47	0.40108702
249	0x3e044f37	0.12920843
250	0x3e1e9226	0.15485439
251	0x3d2bcb4d	0.04194193
252	0x3dabe49f	0.083932154
253	0x3da235a6	0.07920389
254	0x3c35f7d7	0.011106453
255	0x3c2e1728	0.010625638
