models/autoencoder_mnist_simple_1_0.0088.pt (torch, 10447 bytes, 7 tensors)

0.weight f4 [4, 1, 5, 5]
00000000: e4a0 4bbd a5f0 9a3e a833 0e3e 6437 923e
00000010: 8f44 523e 8f01 9e3e 310a 2bbe 2975 3abe
00000020: 61a4 933d 389a 883d 7377 5cbd 6d04 e7be
00000030: 62c6 b1be ce94 8e3d 1233 8f3e 78f3 03bd
00000040: 2cbe 77be 7f21 9ebd 8a54 63bd 48f5 cdbc
00000050: 2b39 d0bd 9974 e9bc e7f1 11be da37 813d
00000060: 6314 243e 4f50 a73d 86d1 b6bc 8cac b5bd
00000070: 8c6e e0bd 72c5 f1bd dfad a4bd 10e4 0d3e
00000080: a8b1 b8bd 35c4 22be 81fb 113e 02a5 92bd
00000090: ae43 be3d 8d7a 1abe b919 1fbe 06ef e3bc
000000a0: f9cc 0ebe 8d8c 80bc 34d1 8fbe a3b6 2e3d
000000b0: 327f db3d a369 a23d 9439 a63c e448 1a3e
000000c0: ebeb c0bd 5876 143e 3f62 47be 71b0 91be
000000d0: 9ac6 413e 8297 6c3e c5d3 523b 09d5 28be
000000e0: 8895 8e3e 8db6 b23e 9a52 2a3e e663 113e
000000f0: 085d db3e 5c20 203f 9b74 473f 7874 d03e
00000100: 9c3b 3a3e 1987 d43e e54d f73e 1c24 c83e
00000110: 05fc f03e 63be 4c3e 1d70 173e e29a f43d
00000120: 24fd 80bc 3833 34be 515c ddbd 6ea3 6ebe
00000130: 78a8 493e bfae 513e 46dc 5dbe ad77 bbbd
00000140: a582 d43e 4bc8 033f a019 ba3e 6b2e bdbc
00000150: 8134 5ebe da35 bf3e 8f76 203f 8706 223f
00000160: a9f2 a53e fbe9 883d 2f8d 613e e855 073f
00000170: bb24 273f db9a 4b3e c6fe 263e 264b 723e
00000180: 9fdc be3e 2858 d03d 3d03 acbd f909 05be
-0.049713984 0.30261722 0.13886893 0.28557885 0.20533966 0.30860564 -0.16703106 -0.18208756
0.07209087 0.0667004 -0.053824853 -0.45120564 -0.34721667 0.06961976 0.2796865 -0.03221461
-0.24193639 -0.077212326 -0.055500545 -0.025141373 -0.10167154 -0.02849798 -0.14252435 0.06309481
0.16023402 0.081696145 -0.022316705 -0.08870801 -0.10958585 -0.11805238 -0.08040976 0.1385653
-0.0901826 -0.1589516 0.14256097 -0.07160379 0.092902526 -0.15085812 -0.15537156 -0.027823936
-0.13945378 -0.01569202 -0.28089297 0.042654645 0.1071762 0.07930305 0.020291127 0.15066868
-0.09419998 0.1449827 -0.19471072 -0.28454927 0.18923417 0.2310467 0.0032169682 -0.16487516
0.27848458 0.349049 0.16633072 0.14198264 0.42844415 0.62549376 0.779123 0.4071386
0.18186802 0.4150932 0.48301616 0.3909005 0.47067276 0.19994502 0.14788862 0.11943604
-0.015745707 -0.17597663 -0.108086236 -0.23304531 0.19693172 0.20476817 -0.21666059 -0.09153686
0.41505924 0.514775 0.36347675 -0.023093423 -0.21699716 0.37345773 0.62680906 0.6329121
0.32411698 0.06685253 0.22026514 0.5286546 0.6529042 0.19883291 0.16308126 0.2366148
0.37277696 0.101730645 -0.08399055 -0.12992086

0.bias f4 [4]
00000000: ed92 bc3e 295d 103f f6cb 8439 f61f 4a39
0.36830845 0.5639215 0.00025328965 0.00019276128

3.weight f4 [16, 4, 5, 5]
00000000: e508 9b3e 439a 3a3e 4f42 e83e 7cfd 613e
00000010: 8aeb 9b3e ce30 573e a813 2e3f 51ed 173f
00000020: d74a 193e 4dbc 233e 8e5b 0f3e 2bd5 a13e
00000030: 02cf 7e3d e186 01bf ad91 a33e a909 da3e
00000040: 85f7 a73e 5052 0f3f fe41 103f 9d93 373f
00000050: a526 bb3e 82fa a53e 9232 043f 0839 253f
00000060: 2561 823d e330 e53e 6576 3e3e f780 203e
00000070: b0fd 633e 6aa9 9b3e 022b 6b3e 06af ab3e
00000080: 6509 8a3e 0c86 683e b5c1 8e3e 0cd4 d73e
00000090: c76d 8d3e 86d3 f83e 4f90 ac3d 59c4 5b3e
000000a0: f1c7 8d3e 6943 613e a347 2f3d ee17 823e
000000b0: 8698 c73e 25c6 a73e e5a2 cd3e 2e6c 863e
000000c0: 80ec e63e 055c b83e 66a1 2b3d e187 083e
000000d0: 895d 9dbb 3c63 a33c e014 903c 69f5 bebd
000000e0: 0baf 06bf 94d1 1fbf 65e3 a1be e224 bbbd
000000f0: 90e6 1cbe b823 a3be dec0 ba3d 8f13 063e
00000100: 7258 bd3d 54d3 e8bd 3c96 22be f58a 023e
00000110: 56da 643e 366d 97be f87a fc3d 87d2 aabc
00000120: 6633 103d 5c5f 88bd 5c6e 01be 06ac f43c
00000130: af0a 2b3d 0b39 72bd c56f 20bd 55e0 2abd
00000140: b5fc 913e 3621 b9be 1a90 3bbf 7cba b9bd
00000150: c076 8c3c 8f15 e53e 61c7 e9bd c786 43be
00000160: bdf7 b93d ab69 f43d 6a80 483e b5b7 cf3d
00000170: ae2e 2bbe 108e 013e 76d7 b93d e617 133e
00000180: fae5 17bd 6637 9abd e006 3f3d 0abc 8ebd
00000190: dad0 743e 57f2 bd3e 6b6d c63e 259a 063f
000001a0: f880 c63e 90db c83d a3c6 293d 1b41 28bf
000001b0: c62d 16bf f684 a93e c901 9d3c c09b 8b3e
000001c0: d872 54bf 5d36 20bf db71 4b3e bee2 583d
000001d0: b6b6 ef3e 684e 913e 123b d33d 3475 a33d
000001e0: fdeb 25bd c667 acbd 606a 0d3e a7fc 273e
000001f0: 7484 6a3e 65bf db3c 075e 95bc b7ff 3a3e
00000200: 208b 653e 3c4a 7d3e feb5 5d3d 6258 bc3d
00000210: f0e1 86be 902c acbe f398 863e 3341 1abd
00000220: af4c 8abc 7315 3dbf 079a d2be aa2a b63d
00000230: 0d9c bbbc 7f1c 9dbd 47ca 05be 7f4e 0abd
00000240: 110d 443e 49d1 d63e c3e4 bb3e 3d26 de3e
00000250: ad8d e83e f6ab c73e 8039 133e 5069 58bd
00000260: dc2a e7b7 a863 ffbc 35fb 683d 7ecb 39bd
00000270: b5b1 883d 1cfd 4a3e e9bf 333e 8327 093c
00000280: 1d9c 143d 1258 883e b6a7 803e a7a3 5a3e
00000290: ca89 443c 99ff afbd aa73 da3b 6fd1 f53c
000002a0: 6d28 89bd 4e29 ab3d a0d6 283e 7362 57bd
000002b0: d557 9e3b 0950 52bd 1a47 273e 1c6b 323d
000002c0: a257 333b 1e94 6ebd 8f56 493d 7049 f0bc
000002d0: 2ee7 ce3c f238 6abc 0328 ba3e 32d9 653e
000002e0: 614a edbc ca57 cabd d1ce 1bbe 5f59 ae3e
000002f0: c8b3 573e d0fc 8abd fb83 b0bc 5700 4abe
00000300: c728 113e aa73 a43c cfb6 f4bd a01d 293e
00000310: a26a 703d 52a0 703d e039 afbc 70fb 43bc
00000320: f7f0 263d 6b07 46bd 85b0 90bd b824 a8bd
00000330: 2fec b5bd bd0d 12be fc21 d4bd ea5b 0dbb
00000340: 4662 3bbd 8658 f7bd 6a30 4fbd 8318 5ebd
00000350: 4f25 4c3d 51fe 27bc 97fa 14bd f598 873d
00000360: 56c7 edbd 0c2d d5bd 63e8 95bd 3ed1 74bc
00000370: e879 0e3d 554c 2d3b d228 b8bd 975e c2bd
00000380: adac 883d c77d db3c 1cf0 9a3c 7d1a 703d
00000390: ef3c 9d3c 6e45 d53c 9c05 2e3c 3a34 2bbd
000003a0: 9937 efbb e842 9fbd e06d 69bd 222b 1abc
000003b0: f8a7 7d3d 4973 60bd 766a 09bc 0f6a 483d
000003c0: 6934 b2bd adca 24bd ffab 563d f3c1 3c3d
000003d0: a991 5c3d 9382 9fbd 1534 973c 7570 dfbd
000003e0: 369c a9bd 105e 98bd fc4b 8a3c 1476 d8bd
000003f0: a532 07bc 5ca4 573d 2a7e 08be f50b 433d
0.30280223 0.18222909 0.4536309 0.22069353 0.3045314 0.21014711 0.67998743 0.5934649
0.14969955 0.159898 0.13999769 0.31607947 0.062209137 -0.50596434 0.3194708 0.42585495
0.3280603 0.55984974 0.56350696 0.71709615 0.3655292 0.32417685 0.51639664 0.6454015
0.06366185 0.4476386 0.18599851 0.15674196 0.22264743 0.3040269 0.22965625 0.3353197
0.26960292 0.22707385 0.27882162 0.42153966 0.27622816 0.4859888 0.08425962 0.2146162
0.27691606 0.21998371 0.042792927 0.25408882 0.38983554 0.3276836 0.4016334 0.2625441
0.4510231 0.36007705 0.04190197 0.13333084 -0.00480241 0.01994478 0.017588079 -0.09324152
-0.52610844 -0.62429166 -0.316188 -0.09137894 -0.15322328 -0.3186319 0.09118818 0.13093399
0.09245385 -0.11368433 -0.15877622 0.1274832 0.22348914 -0.2957551 0.12328142 -0.02085234
0.035205267 -0.06658813 -0.12639755 0.029867183 0.041758236 -0.05913643 -0.03916909 -0.041717846
0.28513113 -0.3615815 -0.73266757 -0.09068772 0.017146468 0.4474301 -0.11414982 -0.19094382
0.090804555 0.11934217 0.19580236 0.10142461 -0.16717026 0.12651849 0.09074299 0.14364585
-0.037084557 -0.07530098 0.046637416 -0.06969459 0.23907796 0.37098953 0.38755354 0.52578956
0.3877027 0.09807503 0.0414492 -0.65724343 -0.58663595 0.33109254 0.01916589 0.27267265
-0.8298774 -0.6258295 0.19867651 0.052950613 0.46819085 0.28380132 0.10314001 0.07981339
-0.04050826 -0.08418231 0.1381011 0.16404973 0.2290209 0.026824662 -0.018233312 0.1826161
0.22416353 0.2473535 0.05412864 0.09196545 -0.26344252 -0.33627748 0.26288566 -0.037659835
-0.016882269 -0.73860854 -0.4113314 0.08894856 -0.02290156 -0.07671451 -0.13065444 -0.033766266
0.1914561 0.41956547 0.3669797 0.43388548 0.4542059 0.38998383 0.14377403 -0.05283481
-2.7557304e-05 -0.03117545 0.056880195 -0.04536008 0.0667452 0.19823116 0.17553677 0.008371237
0.036281694 0.26629692 0.25127953 0.21351491 0.011995742 -0.08593673 0.0066666203 0.030007092
-0.06697164 0.083574876 0.16488123 -0.052584123 0.0048322477 -0.05134586 0.16335717 0.04355918
0.0027365466 -0.058246724 0.049154814 -0.029331893 0.02525672 -0.014295803 0.36358652 0.22446135
-0.02896613 -0.09880026 -0.15215613 0.3405256 0.21064675 -0.067865014 -0.021547308 -0.19726692
0.14175712 0.020074684 -0.119489305 0.16515207 0.058695443 0.058746643 -0.021389902 -0.011961803
0.040757146 -0.048346918 -0.070649184 -0.082101285 -0.08882939 -0.14263053 -0.103580445 -0.0021569678
-0.045748018 -0.120774314 -0.05058328 -0.054222595 0.049840268 -0.010253505 -0.036371794 0.06620971
-0.11610286 -0.10408983 -0.07319715 -0.014942465 0.034784228 0.0026443203 -0.08992161 -0.09490698
0.0667356 0.026793374 0.018913321 0.05861901 0.019194094 0.026034083 0.010621455 -0.041797854
-0.007300329 -0.07776433 -0.05698955 -0.009409698 0.061927766 -0.054797444 -0.008387199 0.04892927
-0.08701403 -0.04023235 0.052410122 0.046083402 0.05384985 -0.07788577 0.018457452 -0.10910121
-0.08281748 -0.07439816 0.016881935 -0.105693966 -0.008251821 0.05264698 -0.13329378 0.047618825

3.bias f4 [16]
00000000: 6dea c63e dc39 1abe 1dc7 403d b497 a03e
00000010: dece 583e 341a 313e ce05 843e c138 a53e
00000020: 18cf 6d3e 8bdf a23e cadc 823e 030c 633e
00000030: 6cc4 8b3e 878f 553d abd7 3b3e 8ee9 a23e
0.38850728 -0.15061134 0.04706489 0.3136574 0.21172664 0.17295152 0.2578568 0.32269862
0.23223531 0.31811175 0.25559074 0.22172551 0.27298295 0.05213883 0.1834399 0.31818813

6.weight f4 [16, 4, 2, 2]
00000000: 61c8 323e 036a 8e3e 5900 703e 9684 3d3e
00000010: ff71 403f d530 673e f207 c53d 0532 58be
00000020: 872c 643d 8a52 2abe 1bf7 5f3e 9bda 733e
00000030: 0c69 a93d 961f a9bd 8564 733e f539 8d3d
00000040: a6f1 c93e 7587 c53e 275c b73e c0bd 8e3e
00000050: 4186 b5bd 585b a9bd ea34 fabd 9f5f 1ebe
00000060: 27fa b23b 9ff2 933d dcd3 253e d5b1 333e
00000070: 2587 e43d 4033 083c e101 373e 8edf 3a3d
00000080: dbe3 603c 84e8 73bc fbe9 093e a377 e83d
00000090: 36f1 94bd e91a 15be b73a e7ba 19be e03d
000000a0: 4d1d d3bd 870b 1abe abeb 4bbe a82d 583e
000000b0: 8139 87bd e467 b7bd 33bd 8dbc 58c1 60be
000000c0: eb69 fcbd 5c16 cd3b b6cc 03be e1c8 d2be
000000d0: 403c b0bd 06f6 553e 9c6c 0b3e 7122 093f
000000e0: 4b26 023e 83b9 ea3e 7e72 903e c87f ba3e
000000f0: d725 f73a dab9 2f3d 2767 59be c3a5 eabe
00000100: 0ca4 5b3d acf4 93be f11e c93e 1c8b e43d
00000110: 1167 843e f3c9 f23e 501f 2b3d 783a ce3e
00000120: 5da9 333d ce79 be3e db21 cb3d b4d4 bd3e
00000130: 774c 15be cfc8 42bf f3ec 27bc 75e9 dbbe
00000140: cb81 b2be a3e8 3dbe 31dc abbe f36d 08be
00000150: 0c14 eb3e ea7d 013f 7f7e 0e3f c408 c43e
00000160: b240 893e 663c d83d 29b2 833d 6a97 a13e
00000170: e4dc 83bd 5860 fe3d 2714 f0bd 7491 7d3e
00000180: ae87 283d 3560 4cbd c264 25bf c4d3 1c3e
00000190: 90f0 3abe 5c5b 9cbc b085 043f 9305 a23e
000001a0: 638c 903e ebf3 19bd 8801 c23e ef92 af3d
000001b0: a512 e83c 101b 313b 3396 d03d 4a9d bb3e
000001c0: a698 103e a89c a1be 3b5b 843e 1e88 b83e
000001d0: a1b5 683d 4acb 3c3f 4916 b73d d16b a73e
000001e0: a734 863e 485d c43e 35f8 403e dbb3 6fbd
000001f0: 8cf0 4ebe 2b55 01be 0644 ee3c 08b2 5bbc
00000200: b65c 46be 10b3 573c 3a5e 1bbe 2789 e3be
00000210: 3cb3 193f f250 e53d dbd9 243e 982e a43e
00000220: a3a2 b33e 5637 923e 9981 b53e 62b8 de3e
00000230: 7c14 9e3e ffee 493e 60e7 64be e727 6c3e
00000240: a2c1 e5bd 4c6e 3dbf 2049 06bf b571 11bf
00000250: 8257 0f3f 3b28 573e 4eef 3f3e 7cf3 d03e
00000260: 87b6 cc3e 1839 78bc d6b3 893e b8ab 3d3e
00000270: 73d8 e1be ff8a 53bf d8a1 a0be 4008 9cbe
00000280: c18a b13d 19e1 3b3e ad7e 27bf d239 ccbc
00000290: fdf1 043e 9523 263e c5ea e23e 535b 283e
000002a0: 4234 ba3e 5c26 603e 849f d13e 1bd4 3d3e
000002b0: e38f 1f3e e6f5 4a3e 36da 863e 16c0 d03e
000002c0: 61c8 ff3d da3c 6fbe ed2a 5f3e fb89 963e
000002d0: d513 49bc db4b f03e 0070 9e3e bd41 c73e
000002e0: 130d ef3e 3335 303e 4566 183e dd06 03be
000002f0: 6757 53be 8672 693d 41ea 0dbe e890 643e
00000300: 9cf4 8dbe 4560 fd3d fe67 b83e 9163 523e
00000310: bb13 d53e 24d9 4b3d f0c6 103f 54c2 983e
00000320: b88c 063f a8bb d83e aff1 e5bd b4b1 503d
00000330: 2eb1 8d3e ab59 f23e b5df 8abd 78ab 6cbd
00000340: 7fb9 2cbe 2983 25bd a6a2 5b3e c484 fcbc
00000350: a0d0 38be b244 5bbe 7ca5 13bd 2a1f 8fbd
00000360: 80d9 1fbe 96ef 3dbe 601e 3a3c 099a ee3b
00000370: cc79 873c 4281 23be fdfc e6bd bb12 053e
00000380: a9b6 31bf eb02 533d ef17 1e3e 0ec2 9c3e
00000390: b07d 193f 2a72 c73e 247c 163f a407 903e
000003a0: bc21 f03d dff9 033d 01cd 9ebb b4ee aa3d
000003b0: 0afd ba3d d782 a83e a29f 313e c91b ec3c
000003c0: 7e78 ad3e d194 6e3e 41a6 383e 4786 11bf
000003d0: f68d 9abc 41bb fbbd a919 29be 4622 e93e
000003e0: dbba 9fbc 4303 ed3e 26b0 9f3e 5a06 1d3f
000003f0: 2f5b 173e 4404 63bb 0792 fbbd ca15 22be
0.17459251 0.27815256 0.23437633 0.18507609 0.75173944 0.22577222 0.09620656 -0.21112831
0.055706527 -0.16633049 0.21871607 0.2381386 0.08271989 -0.08257978 0.23768814 0.0689582
0.39442176 0.38579908 0.35812494 0.27879143 -0.088634975 -0.082693756 -0.12217124 -0.15466164
0.0054619494 0.07224011 0.16194099 0.17548306 0.11158589 0.008313 0.1787181 0.045623355
0.0137262 -0.014886979 0.13468163 0.11350944 -0.0727257 -0.14561047 -0.00176414 0.10973758
-0.10308323 -0.1504346 -0.19914119 0.21111166 -0.06602765 -0.089553624 -0.017302131 -0.21948755
-0.1232489 0.006258769 -0.1287106 -0.41168883 -0.08605242 0.20894632 0.1361565 0.5356818
0.1270992 0.4584466 0.2821235 0.36425614 0.0018855882 0.04290185 -0.21230756 -0.4582959
0.053623244 -0.28897607 0.3928142 0.111593455 0.25859883 0.474197 0.04177791 0.40278983
0.04386269 0.37202305 0.09918567 0.37076342 -0.1457995 -0.7608766 -0.010249364 -0.4295155
-0.3486465 -0.18545775 -0.3356643 -0.13323192 0.45913732 0.50582755 0.5566177 0.38287938
0.2680717 0.10558395 0.06430466 0.31560832 -0.06438616 0.1242072 -0.11722594 0.24762517
0.04114502 -0.049896438 -0.6460687 0.15315157 -0.1825583 -0.019086532 0.5176649 0.31644878
0.28232107 -0.037586134 0.37891793 0.08572947 0.028329203 0.0027024187 0.10184898 0.3664344
0.14120731 -0.31564832 0.25850853 0.3604135 0.05681384 0.73747694 0.089397974 0.32699445
0.26212046 0.38352418 0.18844683 -0.058521133 -0.20208949 -0.12630145 0.02908517 -0.013409145
-0.19371304 0.01316525 -0.15172663 -0.44440576 0.60039115 0.1119708 0.1609873 0.32066798
0.3508502 0.28557843 0.35450438 0.43500048 0.30875003 0.19720076 -0.22353888 0.23062097
-0.11218573 -0.73996425 -0.5245533 -0.5681413 0.559929 0.2101144 0.18743631 0.40810764
0.39983007 -0.015150331 0.26895016 0.18522537 -0.4411045 -0.82633966 -0.31373477 -0.30475044
0.08669043 0.18347587 -0.65427667 -0.024929915 0.12982936 0.16224511 0.4431974 0.16441087
0.36367995 0.21889633 0.40942013 0.18537943 0.15582232 0.19820365 0.26338357 0.4077155
0.12489391 -0.23363057 0.21793719 0.29402146 -0.012272795 0.46932873 0.30944824 0.38917342
0.46689662 0.17207794 0.14882763 -0.12795587 -0.2063881 0.056993984 -0.13858892 0.22320902
-0.27725685 0.123718776 0.3601684 0.20545794 0.41616616 0.04976763 0.56553555 0.2983576
0.5255847 0.4233067 -0.11227738 0.05095072 0.2767424 0.47334036 -0.0678095 -0.057780713
-0.16867636 -0.040408287 0.21448764 -0.030825026 -0.18048334 -0.21412924 -0.03604649 -0.06988366
-0.15610313 -0.18548426 0.011359781 0.007281546 0.01653757 -0.15967277 -0.112787224 0.12995426
-0.6941934 0.051516455 0.15438817 0.30616802 0.5995741 0.38954288 0.58783174 0.2813083
0.11725184 0.032220718 -0.0048462157 0.0834631 0.091302946 0.32912323 0.17346051 0.028821843
0.3388099 0.23298956 0.18032171 -0.56845516 -0.01886652 -0.12291575 -0.16513695 0.4553396
-0.01949828 0.4629155 0.31189078 0.61337817 0.14780878 -0.0034639994 -0.12283712 -0.15828624

6.bias f4 [4]
00000000: 365e 8d3e 0d86 863d 68f3 70bd b842 213d
0.2761094 0.06568537 -0.05882588 0.03937027

8.weight f4 [4, 1, 2, 2]
00000000: 46fc dd3e 011f b13e 0c19 643f 1fed 353f
00000010: 8139 77bf b48b 46bf 039c cdbe db62 0fbe
00000020: aba6 ba3e 8542 e6bd f1ce b0be 90fa 4dbf
00000030: 5c79 14bd 94c0 873f 4d97 d9be a82b 2c3f
0.43356532 0.34593967 0.8910072 0.71064943 -0.9657212 -0.7755692 -0.4015809 -0.14002554
0.36455283 -0.11243156 -0.34532884 -0.80460453 -0.03624855 1.0605645 -0.42498246 0.67254114
